Machine_Learning/PyTorch/Filecab/CIFAR10-CNN-Model.pt (torch, 364787 bytes, 12 tensors)

conv1.weight f4 [12, 3, 5, 5]
000000 21 e2 ad bd b6 94 ab bc 52 64 dd bd 66 d9 ad 3d
       -0.08490396 -0.020944934 -0.1081015 0.08488731
000010 77 51 0c bd 15 21 13 be 63 40 a7 3d 48 5f 6a bd
       -0.03425738 -0.14368089 0.08166578 -0.057219774
000020 fc 57 06 bd ae 71 8e 3d 70 6d a1 bd 3a 4b 0e be
       -0.032798752 0.069552764 -0.07882202 -0.13895884
000030 9e be 46 bc 67 87 03 3d b9 88 49 3d 08 78 0a be
       -0.012130408 0.03211155 0.049202655 -0.13522351
000040 1f 9e ee 3a c0 18 8f bd 3c e0 2c bc 0c 64 8b bd
       0.0018205083 -0.069871426 -0.0105515085 -0.06806192
000050 ed 3f 96 3d 31 e6 66 bd 76 95 db bd b0 b2 5a bd
       0.073364116 -0.05637187 -0.10721867 -0.053393066
000060 5a d8 45 bc 04 68 47 bc 0a bf b1 bd 81 c0 c1 bd
       -0.012075508 -0.012170795 -0.08679016 -0.09460545
000070 af ae 9b bd 4d 4e ac 3d 42 9e 1c bd 06 51 90 3d
       -0.076016776 0.08413372 -0.038236864 0.07046704
000080 cd 1d 1c bd b9 f0 77 bd 5c b3 9a 3c 10 51 d9 bd
       -0.038114358 -0.060532305 0.018884353 -0.106111646
000090 aa 5e 74 bc 1c d1 ac bc af 4c 85 3c 58 b9 8c bd
       -0.014915148 -0.021095805 0.016271917 -0.06871289
0000a0 53 73 78 bd 27 ba 00 3d d6 b2 f3 bc b9 5e e2 3b
       -0.060656857 0.03142753 -0.029748362 0.0069082645
0000b0 61 28 68 bd e7 da 93 3d 4d 52 8a bd 2c 78 36 3c
       -0.056679133 0.07219487 -0.06753979 0.01113705
0000c0 9d 22 83 3d 01 51 17 bd 34 4b 3a bc 04 62 7f bd
       0.06403086 -0.036942486 -0.011370469 -0.062349334
0000d0 de 8f 86 bd 1c 05 19 bd c4 d7 6c bd 1e 74 0f be
       -0.06570409 -0.03735839 -0.057822958 -0.14009139
0000e0 32 c1 cc bd fd 19 b4 3d c6 34 18 3d 28 72 1a bd
       -0.099977866 0.08794019 0.037159704 -0.037706524
0000f0 59 ce 5a bc 77 45 18 bd 9b 26 11 3d 6e 55 e4 bd
       -0.013354861 -0.03717562 0.035437208 -0.11149107
000100 08 46 ad bd dd 7e 24 bd 4b e1 54 bd 70 9c 23 be
       -0.08460623 -0.04016005 -0.05197267 -0.15977645
000110 b0 05 71 3d 3b a6 50 bd 10 e5 cd 3d 85 52 42 bd
       0.058843315 -0.05093978 0.10053456 -0.047441978
000120 6a 2c bd bc 74 6a 9c 3d 83 ed e3 bb 69 ea 71 3e
       -0.023092467 0.07637492 -0.006955804 0.23624577
000130 9c 20 99 3e 48 ef 9b 3e 11 1a 33 3e 67 f7 4b 3e
       0.2990769 0.30455995 0.17490412 0.19918595
000140 dc 61 82 3e d0 ca 85 3e 95 5c be 3e 79 bb b6 3e
       0.25465286 0.26131296 0.3718001 0.35689905
000150 f1 fc 43 3e 28 02 b4 3d 96 b1 ac 3e e6 b8 84 3e
       0.19139458 0.08789474 0.33729237 0.25922316
000160 cf a7 9a 3e 04 c3 42 3e d1 6d 06 bc 3a 89 4e bd
       0.30206153 0.19019705 -0.008204893 -0.05042384
000170 33 a0 33 3d ae d8 ff 3d 13 81 7d bd c1 c9 27 be
       0.04385395 0.124925 -0.061890673 -0.16385557
000180 b3 c4 0a be 8e 9b 41 bd 65 34 08 3d a7 a2 32 be
       -0.13551597 -0.04726749 0.033253092 -0.1744486
000190 cc 8f 5a be c0 fe 4d be 4f 5c 81 be c8 ba e5 bd
       -0.21343917 -0.2011671 -0.25265738 -0.11217266
0001a0 c3 ca 78 be fa 24 33 be bd e1 95 be c8 50 90 be
       -0.24296097 -0.17494574 -0.29273787 -0.2818663
0001b0 76 01 a9 be cc 93 0a be 43 b7 cb bd 95 4b 5d be
       -0.33008927 -0.13532943 -0.09947064 -0.21610864
0001c0 c8 c1 a5 be 93 d3 43 be bb 7f 23 be 69 8c ca bd
       -0.32374406 -0.19123678 -0.15966694 -0.09890062
0001d0 b9 f2 35 be 8c 68 87 be 89 6b fe bd 03 13 38 bd
       -0.17768373 -0.2644695 -0.124228545 -0.044940006
0001e0 54 c9 05 be 83 f5 82 be 64 fd f5 bd 06 ab e6 bd
       -0.13065082 -0.25577936 -0.12011221 -0.11263089
0001f0 6e df 96 bd 2e 27 0e bd 2c 41 4f bd d1 12 14 bc
       -0.073668346 -0.034705333 -0.050599262 -0.009037689
000200 4f b5 8c bd e9 70 8f 3d 8f e5 14 be 83 65 29 be
       -0.06870519 0.07003958 -0.14540695 -0.1654263
000210 03 c0 8f be 22 cf 0b be 03 17 b4 bd 1b 35 e3 bc
       -0.2807618 -0.13653234 -0.08793452 -0.027735284
000220 ae dc 69 be 5e 51 dd bd 21 7f 38 be 8d de 31 3e
       -0.22838089 -0.10806535 -0.18017246 0.17370053
000230 67 a4 63 3e 88 3b 5c 3d 27 4f c4 3d 9f a8 22 bd
       0.22230683 0.05376771 0.095854096 -0.03971159
000240 6c c8 ac 3e ce 4f 1a 3e 45 3f 30 3e e9 6f 55 3e
       0.3374666 0.15069506 0.17211635 0.20843472
000250 a0 56 a0 3d 9c d2 a1 3e af 1d 6a be c2 da 31 be
       0.078290224 0.31605995 -0.22862886 -0.17368606
000260 9c 6d b8 bd af 0d dc bd c0 40 2f be e1 57 6e be
       -0.09005281 -0.107447974 -0.17114544 -0.2327571
000270 38 f5 56 be 50 eb 9c be 45 63 9d be 60 87 1a be
       -0.20991981 -0.3064828 -0.307398 -0.15090704
000280 d4 d7 e8 bd 73 7e 7d be 70 e2 b2 bd b2 51 5b be
       -0.11369291 -0.24755268 -0.08734596 -0.21417883
000290 d7 5e 2b be ab 95 41 be 4f db 29 be aa e7 3d be
       -0.16735397 -0.1890475 -0.16587566 -0.18545404
0002a0 60 f5 01 be 67 d7 95 be 1c 58 72 be 06 c6 0e be
       -0.1269126 -0.292659 -0.23666424 -0.13942727
0002b0 9e 50 2a be 18 1c 71 be 61 4f 98 be 9a 4b 5c be
       -0.16632316 -0.23545873 -0.2974806 -0.21513215
0002c0 d8 59 3c be 54 49 55 be d6 03 4e be aa 67 89 be
       -0.18393648 -0.20828754 -0.20118651 -0.26836902
0002d0 0e d9 23 be b6 4a 58 be 9f b3 2c be 92 6e 54 be
       -0.16000769 -0.2112225 -0.16865395 -0.20745304
0002e0 38 37 6c be a5 6a 46 be a7 d2 0b bd 6b ca 3a be
       -0.2306794 -0.19376619 -0.03413644 -0.18241279
0002f0 4f 7f 56 be cf ba 53 be 5b 99 66 3a 20 24 52 3c
       -0.20947002 -0.2067673 0.00087966555 0.012825996
000300 bd cb 08 bd e3 8e ac bd bc 4f 8d be 1f 5c 83 bd
       -0.033397425 -0.08425691 -0.27599895 -0.06414055
000310 c6 48 82 3d 40 5e 13 be 69 8a 34 bc 2b 6d 88 be
       0.06361537 -0.14391422 -0.011019328 -0.2664579
000320 cd 16 25 3e d6 ce ba 3c 74 52 ac 3d 57 a3 aa bd
       0.16121979 0.022803705 0.08414164 -0.08331936
000330 2f 93 3d 3c 94 1a dd 3c c0 24 4a 3d 71 4a 17 3e
       0.011570736 0.026990213 0.049351454 0.14774491
000340 49 fb ce bd da 2b f3 bc 02 65 47 3e 42 cb 43 3e
       -0.101065226 -0.029683996 0.19472125 0.19120505
000350 74 81 e9 3d 2a 1c 9f 3d 0f 01 c3 bd f1 8b 27 3e
       0.11401644 0.07769044 -0.09521686 0.16361977
000360 69 20 0f 3e 71 41 d4 3d 05 d0 20 3e 6e 24 37 bd
       0.13977207 0.103640445 0.15704353 -0.044712476
000370 aa 2c 1a 3e 63 b0 0c 3e 20 4b 54 3e bc a0 3a 3e
       0.150561 0.13739161 0.20731783 0.18225378
000380 9a ef 59 3d 81 26 d3 3d 19 7f eb 3d f3 f8 b2 3d
       0.053207017 0.103100784 0.11498851 0.087388895
000390 15 17 9f 3d 91 89 07 3e f8 24 de 3d 98 85 07 3e
       0.077680744 0.13236071 0.10846895 0.13234556
0003a0 23 76 0b 3c e8 58 db 3d 62 e0 96 bc 21 56 45 3e
       0.008512053 0.10710317 -0.018417541 0.19271137
0003b0 b8 08 05 3e 3b 7a 43 3e db a0 d3 bc 90 03 05 be
       0.12991607 0.19089596 -0.025833538 -0.1298964
0003c0 6b 03 6a bc 02 f5 1e 3b 4c 96 39 be ed 5c 9f be
       -0.0142830415 0.0024254923 -0.1812374 -0.31125584
0003d0 85 b1 88 be 59 3e 1d bd 7a c4 86 be fd fa 04 bf
       -0.26697937 -0.038389537 -0.26321775 -0.5194548
0003e0 83 97 20 be c7 73 ce bc 40 13 d6 3d 8e 3f 86 3e
       -0.15682797 -0.025201691 0.104528904 0.26220363
0003f0 71 39 f4 3d 20 07 49 3e 09 c3 13 be 0f 43 44 3e
       0.119250186 0.19631624 -0.14429869 0.19166206

conv1.bias f4 [12]
000000 4a 37 f3 bd c8 8b a5 3e eb db fe bd b3 17 d4 3e
       -0.1187578 0.32333207 -0.1244429 0.4142433
000010 de 78 d4 3d 2e cb e2 bb 5a 59 cd bd 0c bf 18 3e
       0.10374616 -0.0069211936 -0.10026808 0.14916629
000020 2b 41 54 3e 30 4a f1 bd 69 6b e5 bc 0b a3 bb be
       0.20727985 -0.11781728 -0.028005319 -0.3664783

conv2.weight f4 [16, 12, 3, 3]
000000 c9 16 bc 3d 41 57 3d 3d be 8c c8 3d 8e e3 5e bd
       0.091840334 0.04622579 0.097924694 -0.05441623
000010 99 97 c7 3b 82 71 ad 3d df 03 17 3e df 0b db 3d
       0.00609107 0.084689155 0.1474757 0.106956236
000020 07 a9 6f 3d d9 3a 8a be 49 93 83 3d 5a 7d 84 3e
       0.058510806 -0.26998022 0.06424577 0.25876886
000030 05 42 42 be 6b 54 1d 3e 5a f5 f6 3d 48 40 03 be
       -0.18970497 0.15364234 0.12058516 -0.1281749
000040 e2 fa f9 bd 7c dd 49 3d 24 5f 02 3e 62 c8 9f bc
       -0.12206055 0.04928349 0.12731606 -0.01950473
000050 5e c1 f3 be 38 52 3f bd af 39 7e bc 6d f7 c5 be
       -0.47608465 -0.04670927 -0.0155166825 -0.38665333
000060 1c b3 48 3c 34 f6 cc 3c a4 f8 b6 bd fd 30 a0 bd
       0.012249734 0.025019743 -0.08934143 -0.07821844
000070 82 34 47 be b8 03 b8 bc ee b2 d1 bd bf 84 cb be
       -0.19453624 -0.02246271 -0.10239206 -0.39749715
000080 c3 c1 41 3e 67 e9 d1 3d a0 b5 4d be 2d ed 1d 3e
       0.1892157 0.10249596 -0.20088816 0.15422507
000090 5f cc 89 be 8a b8 88 3c 89 1a c4 3d 72 e8 40 38
       -0.26913735 0.016689558 0.09575374 4.599285e-05
0000a0 ef 9a e7 bd 22 00 ca 3d 37 c5 17 3e 98 5c a4 bd
       -0.11308848 0.098633066 0.14821325 -0.08025473
0000b0 d0 04 f5 3d 71 6e d4 3d 28 d1 e3 3d c4 00 22 bd
       0.119638085 0.103726275 0.11123878 -0.03955151
0000c0 0c d2 d0 bc 30 b3 3b bc 1c 5b d3 3d 5c 58 78 3d
       -0.025490783 -0.011456296 0.10320112 0.06063114
0000d0 33 00 95 3d 4b ef 9b 3d 7a c8 81 bd e2 9d 85 bd
       0.072754286 0.07614001 -0.06337066 -0.065242544
0000e0 81 56 c9 3d 9f a4 98 3d 47 ad 37 bd d4 df 91 bc
       0.098309524 0.07453274 -0.044842985 -0.017806925
0000f0 9d 4c 90 3d 8a 08 8f 3d e3 31 44 bd c1 2c bd bd
       0.07045863 0.069840506 -0.04789914 -0.09237052
000100 df 92 f0 3e dc 0d 96 3d 16 57 f1 3d 24 bf b4 3e
       0.46987054 0.07326862 0.117841884 0.3530208
000110 d5 9d 24 bb 1e 09 6e 3d 79 a6 04 3e ea 71 40 3d
       -0.002511849 0.058114164 0.1295413 0.046983637
000120 f1 92 1e 3e 55 b5 d9 39 b9 00 60 be 39 fe 7b 3e
       0.15485741 0.00041524568 -0.21875276 0.24608697
000130 a0 b3 6a bd 12 64 19 be d9 4b 05 3e 19 9d e6 bd
       -0.05730021 -0.1497958 0.13017215 -0.11260433
000140 9a ee 2b be d3 35 f2 bd 9f 87 fb bd ee aa 54 3c
       -0.16790238 -0.118266724 -0.12281727 0.012980206
000150 c5 b4 67 3d ff 94 c7 bd 1b 0e 7e bd 42 e4 7d bc
       0.05656888 -0.097452156 -0.06202517 -0.015496315
000160 07 82 bd bd d9 29 1f bc c1 23 77 ba 5a 2b 09 3e
       -0.092533164 -0.009714567 -0.000942763 0.13395444
000170 7e 40 31 3d 62 5d 36 3c 7a f7 4c be 21 06 d9 ba
       0.043274395 0.011130663 -0.2001628 -0.0016557613
000180 d0 bb 8a bd d1 7b 8d be 12 b9 f8 3c 97 0a 76 3e
       -0.06774104 -0.27633527 0.030361686 0.24027477
000190 2d 9c 19 3d f7 7b a5 be a6 67 b5 3e 2b 65 93 bd
       0.037502456 -0.3232114 0.3543064 -0.07197031
0001a0 4e bb 8a be 64 62 71 3e bf ab 6e bd 3d a1 e7 bd
       -0.27096027 0.2357269 -0.05826926 -0.11310051
0001b0 e6 d8 c0 3c 82 52 e7 3d ee f3 42 3c c8 76 98 bd
       0.023540925 0.11295034 0.011898978 -0.07444531
0001c0 5a 29 9c bd 3c 05 3d 3d ed 5d 26 bd 27 19 30 3d
       -0.07625075 0.04614757 -0.04061692 0.042992737
0001d0 8a 54 ed 3d 73 d2 b4 3e 3f 32 46 3d a9 47 29 3e
       0.1158839 0.3531681 0.048387762 0.16531242
0001e0 be 31 1c bc 05 c3 41 bd 83 db f9 bd 84 38 8d be
       -0.009533344 -0.047305126 -0.12200072 -0.2758218
0001f0 44 19 93 be 36 e0 09 be ee ba ee bc 04 02 8d bd
       -0.28730214 -0.13464436 -0.02914187 -0.0688515
000200 9c 70 f7 bb 97 7a 43 be 58 e5 eb bd 6b a0 0c 3e
       -0.007551266 -0.19089733 -0.11518353 0.1373307
000210 3f e8 af bd da 8b 84 3e f0 6d 82 3e e2 e6 7d bd
       -0.08589219 0.25887948 0.254745 -0.061987765
000220 81 11 a9 3c 06 bb 59 be 03 45 e4 3d e4 69 88 be
       0.02063823 -0.2126275 0.111459754 -0.26643288
000230 d8 db c4 bd e1 c3 2a 3e 04 3c 60 3e 72 58 75 3d
       -0.09612244 0.16676284 0.21897894 0.0598988
000240 8f 3a a9 be f1 14 cf be 48 10 39 be bd ef 15 3e
       -0.3305249 -0.40445665 -0.18072617 0.14642234
000250 5a 7a 52 3e 24 a7 63 3e 09 da 4d 3e 86 9b 4f 3e
       0.20554486 0.22231728 0.20102705 0.20274171
000260 f6 bc 88 3d bb 68 a7 bd 69 ee b4 3d 0d 2f 90 3c
       0.066766664 -0.081742726 0.08834536 0.01760056
000270 ed 8d 98 3c 8e 4f cc bc 01 6f 0b bc 89 fb 35 bd
       0.018622363 -0.024940278 -0.008510352 -0.044429336
000280 e3 b6 1a bd 38 4b 67 bd f5 43 78 3d a6 da 63 bd
       -0.03777207 -0.05646822 0.060611684 -0.05562844
000290 fb 66 9e bc 5e f8 ca bb a9 e1 87 3d ec 40 3e bc
       -0.019336214 -0.0061941585 0.06634838 -0.011612158
0002a0 8e 4a b7 3d 70 7c 8e 3d 31 ca 4b 3d 24 ab 85 3d
       0.08949767 0.06957328 0.04975337 0.06526783
0002b0 e7 f3 bf 3e cd ce 12 3e 26 85 2b be 4a 94 ef bd
       0.3749077 0.143367 -0.16750011 -0.11698206
0002c0 39 6e cd be 06 1e b4 3d 28 6d 03 be c8 ed c0 be
       -0.40123156 0.08794789 -0.12834609 -0.37681413
0002d0 e6 34 d8 3e 82 4e a7 3e f6 3e 3f 3e 3c 00 75 bc
       0.42227858 0.32677084 0.18676361 -0.014953669
0002e0 a6 e1 70 be f5 22 ad be d9 3c 90 be 61 8c b8 bd
       -0.23523578 -0.33815733 -0.28171423 -0.0901115
0002f0 0a 3f d3 be f4 46 2d 3c 93 f6 9a bc 53 c6 cd bd
       -0.41259032 0.010575999 -0.018916404 -0.10047593
000300 0b ff af bd 2b 2e 69 bd 1a db 6c 3c 9e 5f 56 3d
       -0.085935675 -0.056928795 0.014456535 0.05233728
000310 e7 44 7f 3d b7 54 88 bd bd 83 ab 3d 9a 4e 90 bc
       0.06232157 -0.06656783 0.083747365 -0.017615605
000320 bd dd 08 3d 4b a6 4f be 86 dc 7f be 84 1f 65 bd
       0.03341459 -0.2027828 -0.24986467 -0.05593826
000330 17 2c d9 bd 74 64 92 3d 7c 7b a8 3c 9a 0e db 3e
       -0.106041126 0.07148066 0.020566694 0.42784578
000340 3b f6 94 3e e0 88 94 3e 86 53 78 3d 43 bc 30 be
       0.2909411 0.29010677 0.06062653 -0.17259316
000350 23 ac 45 bc b5 5e db be fa 93 c0 be 6b 21 c1 be
       -0.012064966 -0.42845693 -0.37612897 -0.37720808
000360 65 18 59 3d c3 8e 07 bb eb 4c 6f 3d 54 96 bf bd
       0.05300178 -0.0020684458 0.058422964 -0.09354845
000370 b3 89 6f 3d 95 e1 2e bd 05 4b 4e bc 32 64 14 bd
       0.05848093 -0.0426956 -0.012591128 -0.036228366
000380 06 6e b3 3c a0 fa 49 37 da 4b 43 bd b4 07 84 3c
       0.02190305 1.2038887e-05 -0.04767976 0.016116954
000390 d0 d7 19 3e 3c f5 9e bd 46 1b df bd 3e 3e d4 3d
       0.15023732 -0.077616185 -0.10893874 0.10363434
0003a0 f0 41 f1 bc fc f1 52 be 97 2c 7d 3d 92 e5 8c 3d
       -0.029450387 -0.20600122 0.061810102 0.068797246
0003b0 3b 25 01 3e 3b e1 95 3d f7 6b 17 3d 1e 06 a9 bd
       0.12611859 0.0731835 0.036968198 -0.0825312
0003c0 45 33 40 be ae f2 2e be 09 70 80 be e9 a2 27 3b
       -0.18769558 -0.17084762 -0.25085476 0.002557928
0003d0 40 79 7b 3d db 68 9f be 4c 78 8a be 7d 09 c4 be
       0.06139493 -0.31134686 -0.27044904 -0.3828849
0003e0 f5 53 9b be b4 e1 95 bc 31 38 3a be 8f ac 17 be
       -0.30337492 -0.0182961 -0.18185498 -0.1481192
0003f0 69 51 3f 3c 20 c3 28 be 07 bc c6 bd 63 b2 71 3c
       0.011677125 -0.16480684 -0.09703832 0.014752003

conv2.bias f4 [16]
000000 52 e6 20 bd 0a 7c ba 3d 89 03 99 3e db c8 e5 bc
       -0.03928215 0.0910569 0.2988551 -0.028049877
000010 65 1c 42 bc a3 f4 99 3d 7e e7 61 be a9 19 ed 3e
       -0.01184759 0.07517364 -0.22060964 0.4630864
000020 f4 ef 99 be 54 83 88 be 23 db 1a be 17 2c 5c 3e
       -0.30065882 -0.26662695 -0.15122657 0.21501194
000030 ea bd ac 3e 09 69 8d be c0 4e 32 be 95 91 c8 3d
       0.33738643 -0.27619198 -0.17412853 0.097933926

fc1.weight f4 [120, 576]
000000 fc 02 24 bc 9f d1 df 3c 43 98 e0 bc 1f 73 0a 3c
       -0.010010477 0.027321635 -0.027416354 0.008450299
000010 cf 89 16 bd 47 c7 e7 3c 67 c4 62 bd ad 7c a5 bc
       -0.03675252 0.028293265 -0.055363085 -0.020201052
000020 a3 fb 8e bc 29 69 a0 b9 dc 5b 27 3c 2a c2 49 ba
       -0.017453974 -0.0003059593 0.010214772 -0.0007696474
000030 94 61 4b bd e7 ac ea bc f8 b1 32 bd 11 a6 12 bd
       -0.049653605 -0.0286469 -0.043626755 -0.035802905
000040 4c 06 96 bc d8 a6 cf bc 23 ee 13 bd 5c 21 73 3c
       -0.01831355 -0.025348112 -0.036115777 0.014839496
000050 40 1f 1f bd 82 c1 06 bc 5c 48 f6 bc 6e 68 32 bd
       -0.03884816 -0.008224847 -0.0300638 -0.043556623
000060 15 14 1e 3b 9f 2e ab 3c e3 72 e6 bb 59 d7 fd 3b
       0.0024120857 0.020896254 -0.0070327385 0.0077466187
000070 4e 8a 93 bc 7d bd 38 bd f1 c1 38 bd f0 64 16 bc
       -0.018010285 -0.045102585 -0.045106832 -0.009179339
000080 00 a4 78 bd 41 92 fd 3b 62 0c 6b bd 8a 82 59 bd
       -0.060703278 0.007738382 -0.057384856 -0.053103007
000090 bb 4d d7 bc ee a9 26 bd f1 75 b4 3c eb 49 44 bc
       -0.026282182 -0.0406894 0.022028895 -0.011980514
0000a0 aa fc 1f 3a 1c d0 d9 bc 4a 2e b3 3c cc 1a 3f b8
       0.00061030185 -0.026588492 0.021872658 -4.5562905e-05
0000b0 a9 6a 8a 3b d7 06 19 bd 41 a5 e7 bc 95 64 2a bd
       0.0042241407 -0.03736004 -0.028277041 -0.04159983
0000c0 a7 f6 f5 3a ec 06 a6 bc 77 ad 70 bd 33 47 b8 bc
       0.0018765525 -0.020266972 -0.05875918 -0.022494888
0000d0 df 90 03 bd 8f 54 45 bd d8 e2 cd bc 2e b5 2c bc
       -0.03212058 -0.048176344 -0.025132582 -0.0105412435
0000e0 ae 9f 3a 3c 26 61 04 bd c9 c9 09 bd ba 8b 52 bc
       0.01139061 -0.03231921 -0.033639703 -0.012850696
0000f0 58 d0 29 bd 91 ed 14 bd 3e 3a 60 bd 5f 88 9f bc
       -0.041458458 -0.036359373 -0.054743044 -0.019474206
000100 3a 6c 1e bd 04 b8 06 bd 9c ae a8 bc 84 78 1e bc
       -0.03867743 -0.032890335 -0.020591073 -0.009672288
000110 cf 39 7e bd 51 88 44 bd 4b 4a 5f bc d7 78 44 bc
       -0.06206685 -0.047981564 -0.013628553 -0.011991701
000120 14 4e 56 3c 8a 40 23 bd 08 e0 a8 bb 70 0a 57 bd
       0.013080139 -0.03985647 -0.0051536597 -0.05250019
000130 77 d1 25 bd 2b bc 8f 3c 30 1f e0 bc ec 5a 21 bc
       -0.040482964 0.01754578 -0.027358621 -0.009848338
000140 c8 4f 2d 3c 70 ce 60 3b c9 97 14 3d 75 cc 1c bd
       0.010578103 0.0034302734 0.036277566 -0.038280923
000150 dc e3 0f bd f1 cd ba bc 82 ba 95 3c 99 be d2 3c
       -0.035129413 -0.022803279 0.01827741 0.02572565
000160 18 78 ef 3c ab 3d 85 bc 85 aa 22 bd 78 ae 0c 3d
       0.02923207 -0.016264757 -0.0397134 0.034346074
000170 10 96 a2 bb 10 a0 c2 bb 40 7d e9 3b 22 f2 0e bb
       -0.0049617365 -0.005939491 0.0071255267 -0.0021811803
000180 f2 75 82 3b ec a5 c0 bc 58 08 18 3c 15 4d 4c bd
       0.0039813453 -0.023516618 0.009279333 -0.0498782
000190 60 de 5e bd 77 92 40 bc e6 6f 0f bd 37 3d 96 bc
       -0.054411292 -0.01175367 -0.035018824 -0.018339736
0001a0 ab a5 0d bd 36 f7 07 3c c6 6e 59 bd e1 8b 90 bc
       -0.03458182 0.008298686 -0.053084157 -0.017644824
0001b0 6e d1 ee 3c 2c cc 23 bd 58 59 c2 3b 30 1e 9e bc
       0.029152598 -0.039989635 0.0059310608 -0.019301504
0001c0 63 ab 89 bc 58 c6 db bb 78 e3 c1 bc fc 18 33 3c
       -0.016805356 -0.006706994 -0.023668036 0.01093125
0001d0 0a b8 be 3c c6 16 42 bc ec 49 23 bc 83 e1 ea bc
       0.023281116 -0.01184625 -0.009966355 -0.028671985
0001e0 28 4b 02 bd f6 23 f2 3c d8 05 89 bb 3b 7c e6 bc
       -0.031809956 0.029558163 -0.004181605 -0.02813541
0001f0 fb fe a3 bc d0 28 6d 3b 8e 6e 87 3c 82 93 d8 3c
       -0.020019045 0.0036187656 0.016532209 0.026437525
000200 c2 c6 f4 3c a0 91 c0 bc d5 bb 18 3d a5 93 19 3d
       0.029879931 -0.02350694 0.037288506 0.03749432
000210 93 a5 15 3d ce f3 e7 bc bc f7 44 bc 9c 0c 79 bc
       0.036534857 -0.028314497 -0.012021955 -0.01520076
000220 f4 22 31 3c a0 45 a9 bb 5d 97 04 3d e3 3e 88 bc
       0.010811556 -0.0051657706 0.032370914 -0.01663155
000230 c6 5e 11 bd a0 ee 8d 3a d7 d5 07 bd 1a 10 e6 3c
       -0.035490774 0.0010828562 -0.033162918 0.02808385
000240 c8 00 c5 bc d8 06 26 bc 5f 22 39 3b fe 6f 0a bd
       -0.024048224 -0.010133468 0.0028249247 -0.03379821
000250 4a 4d 08 bd d0 ac 04 bd d1 29 9a bc 5b d5 27 bd
       -0.033276834 -0.03239137 -0.018818768 -0.040974956
000260 a7 f6 40 bd 8e cd 84 3b 34 b6 f2 bb b6 4e 80 bb
       -0.047110226 0.0040528243 -0.007406974 -0.003915633
000270 9b a6 89 3c 03 1c 4f bd bf e3 83 bd 57 09 69 bd
       0.016803076 -0.050563823 -0.064399235 -0.056893673
000280 1e 23 7f bd ec 6c d3 bc 64 1a 0f bd 3f 3d 7d bd
       -0.06228935 -0.025808774 -0.034937277 -0.061825987
000290 d5 3f 8a 3a dd 47 45 bc 8a 2b 50 bd 3f e7 ca 3c
       0.0010547588 -0.012041059 -0.050822772 0.02476847
0002a0 bd d3 82 bd ef 02 2e bd de e3 34 bd 52 88 65 bd
       -0.06388042 -0.042483266 -0.044162624 -0.05603821
0002b0 09 f8 9b bb cf 77 18 bd b9 e3 2b bc 10 d0 12 bd
       -0.0047597927 -0.037223633 -0.010491305 -0.035842955
0002c0 e5 78 79 bc 4a c4 07 bd f5 ec 3c bd 2d f3 47 bd
       -0.015226577 -0.03314618 -0.046124417 -0.048815895
0002d0 10 19 f8 bc f9 c4 37 bd cd 9e 86 bd e9 5d 67 bd
       -0.030285388 -0.044865582 -0.065732576 -0.056486044
0002e0 f5 50 85 bd 4a d0 05 3a 1c 6e 52 bd cd d9 9b bb
       -0.06509582 0.0005104585 -0.05137454 -0.0047561885
0002f0 40 db f5 bc 18 4e 5a bb e1 db 4d bb 9d a2 fc bb
       -0.030011773 -0.0033310708 -0.0031411576 -0.0077098147
000300 3a 2d 19 bc fa b1 da bc 85 5d 0f 3b 24 7d 7b bd
       -0.009349162 -0.026696194 0.002187581 -0.06139864
000310 4f 07 0f bd 5c b5 60 bd b8 f5 61 bd 89 3d 84 bd
       -0.03491908 -0.054860458 -0.055165976 -0.064570494
000320 41 2f 74 bd eb 3d 81 bc 0c 11 07 bd 33 0f 8f 3b
       -0.059615377 -0.015776595 -0.03297524 0.0043658256
000330 2e 83 6b 3c bf 64 9e bc 90 98 56 3c 77 37 08 bd
       0.014374537 -0.019335149 0.013097897 -0.03325602
000340 af 2f 08 bd 5b 70 21 bd 27 bf 70 bd 69 42 0b bd
       -0.0332486 -0.03941379 -0.058776047 -0.03399888
000350 f8 a0 3c bc 46 27 72 bc e2 df 13 3c 40 ff 0b bd
       -0.011512987 -0.014779871 0.009025546 -0.034178972
000360 66 2e 80 bd bb 4c 1b 3c 03 67 9c bc 52 b1 4c bd
       -0.0625885 0.009478743 -0.019092089 -0.049973793
000370 bc 73 7c bd 95 d3 8e 3b 0b 9c 23 bc a6 aa 3b bd
       -0.06163381 0.0043587186 -0.009985934 -0.04581704
000380 32 90 82 bd 91 ee 9a 3b 2b 18 31 bd 3f 83 0a bd
       -0.06375159 0.0047281464 -0.04323594 -0.033816572
000390 15 fe bd bc 0a ae e0 bc 18 38 5d bd 0d da ef ba
       -0.023192445 -0.027426738 -0.054008573 -0.0018299237
0003a0 68 16 18 bc ff cb 45 bd 93 a0 15 bd fd e0 68 bc
       -0.009282686 -0.04829025 -0.03653009 -0.014213798
0003b0 0a 54 72 bd 22 9d 79 bd 84 76 e9 3b 17 5e 86 bc
       -0.059162177 -0.06094087 0.007124724 -0.016402287
0003c0 25 b6 fd bc 48 53 3d bd 1b 36 87 3b 8d 08 26 bd
       -0.030970642 -0.046222 0.004126323 -0.0405355
0003d0 32 08 a3 3a 04 4e d2 ba d2 b3 4f bd 08 9b f4 bc
       0.0012438355 -0.0016044979 -0.0507086 -0.02985908
0003e0 27 50 9f bc a5 2c 78 bb a6 56 19 3c 1b d2 5f bd
       -0.0194474 -0.0037868407 0.0093590375 -0.05464373
0003f0 a8 84 e2 3c aa 5f 1f 3b 11 21 06 bd 84 4a b3 bc
       0.027651146 0.0024318495 -0.03274638 -0.021886118

fc1.bias f4 [120]
000000 a6 89 75 3c af 3f 3a bd 3d c4 42 bc d5 8a cc ba
       0.014986431 -0.04547089 -0.011887607 -0.001560534
000010 e8 bb 05 bd f3 fd 12 3c 6a 77 0e bd f6 47 12 bd
       -0.032649904 0.008971679 -0.03478185 -0.03571316
000020 52 95 a3 bd 4f 03 2a bf f6 0c b5 bd e5 b8 60 bd
       -0.07987465 -0.664113 -0.08840363 -0.05486383
000030 14 67 10 be 74 af e7 bc 65 c8 4f be 22 41 75 3e
       -0.14101821 -0.028281905 -0.20291288 0.23950627
000040 ba 49 5e 3b f5 f5 39 bb c2 23 aa 3d 49 c7 d3 3e
       0.0033918456 -0.0028375362 0.083076015 0.4136298
000050 15 c2 84 bd 13 d7 60 be fa 0b 70 bd 3b 79 fc bc
       -0.06482331 -0.21957044 -0.05860517 -0.030819526
000060 e9 fb 1a bd 08 a0 da 3c bd a9 20 bd 6c e7 9f bc
       -0.037837896 0.026687637 -0.039224375 -0.01951953
000070 23 20 81 3c 32 a3 f8 3e b1 a8 05 3f d6 59 97 3a
       0.015762394 0.48562008 0.5221053 0.0011547159
000080 de d6 80 be 48 39 03 be c9 59 59 bd 89 5a c3 bb
       -0.2516393 -0.1281482 -0.05306414 -0.0059617204
000090 5a 53 4d 3e 35 44 c2 39 a3 74 e3 3e e9 19 ac bb
       0.20051327 0.00037053382 0.44424924 -0.005252112
0000a0 3e 80 c0 3c e2 ab 60 bd 0f 84 39 bd 62 65 11 bd
       0.02349865 -0.05485142 -0.045291957 -0.035497077
0000b0 5f e8 93 3e df 11 2f be 0b 03 be 3d 94 ee ea bd
       0.28888223 -0.17096661 0.09277924 -0.114712864
0000c0 6e 2e af bc 1a db 36 bd ac 62 4b bd d2 17 49 ba
       -0.021384444 -0.044642545 -0.049654648 -0.0007671091
0000d0 90 68 72 3e 24 de 87 bd af 25 ee be 7d fe 5f bd
       0.236727 -0.06634167 -0.46513125 -0.05468606
0000e0 a5 51 cc 3e ee 1c e5 3c 3f 0d af be 11 b1 2f bd
       0.3990604 0.027967896 -0.34189793 -0.042893473
0000f0 37 eb 93 3c d7 b0 9b 3e ca 4f 3e 3c 29 c5 0e bd
       0.018056495 0.30408356 0.011615703 -0.034855995
000100 6f 04 e6 3e 0a ea 16 3e a1 e4 c5 bd 7b 30 30 bc
       0.44925258 0.14737716 -0.09662748 -0.010753746
000110 c7 0a 16 bd e9 b3 0f bd dc 83 8a bc f3 14 c3 bc
       -0.03663137 -0.035083685 -0.016908579 -0.0238137
000120 c8 d7 ae 3e 7e e1 8e 3d 1b 88 ac 3d 63 01 eb 3e
       0.34149003 0.06976603 0.084243976 0.45899495
000130 3b 02 75 bd 38 5a 9d 3e 8c c5 7c bc 63 29 13 be
       -0.05981658 0.30732894 -0.015427958 -0.14371257
000140 1c 54 4e 3e 24 f0 20 ba 91 8e 95 bd f6 29 76 bd
       0.20149273 -0.00061392994 -0.07302583 -0.06009861
000150 f3 f8 e2 3b 97 16 c9 b9 a5 b3 ff 3e 78 6e b2 ba
       0.0069266497 -0.00038354538 0.49941745 -0.0013613245
000160 ab 1b 26 3e 80 a3 73 bd 4c 51 86 3d f6 76 1a 3f
       0.16221492 -0.059482098 0.06558475 0.6033777
000170 80 75 66 3e ea 2f 12 bd 52 db 1c bc a0 92 2e bc
       0.2250576 -0.035690226 -0.009573774 -0.010655075
000180 8e 53 b0 bc 5a a4 b0 3e 10 ca d6 3d f4 62 25 bc
       -0.021524217 0.3450039 0.10487759 -0.010094393
000190 b1 ca 6f bd 9a 12 c2 bc 9e 2e 01 bf 56 17 84 3e
       -0.05854291 -0.02369051 -0.5046176 0.25799054
0001a0 42 26 cd 3e fa df 1e bd 4d 9a 3a be 97 4b 03 bc
       0.4006825 -0.03878782 -0.18222924 -0.0080136275
0001b0 0c 35 ba bc de fe 81 bc d9 03 9a bd 9b 2a 0f bd
       -0.022730373 -0.0158686 -0.07520265 -0.03495274
0001c0 ed de be bd 2c 49 06 3d 96 06 d9 bc f1 6c a3 3e
       -0.093198635 0.032784626 -0.026492398 0.31919053
0001d0 63 fe ca bc d8 71 57 be f5 f9 9a bd 0b 54 ae 3d
       -0.024779504 -0.21039522 -0.07567207 0.08512124

fc2.weight f4 [84, 120]
000000 63 f3 11 3d 48 57 5a 3d 2f 85 65 bd 4a 4b a4 3d
       0.035632502 0.053305894 -0.056035217 0.08022173
000010 a3 6d a8 3d 87 f3 4f bc 72 20 72 bd c7 55 01 3d
       0.082240365 -0.012692339 -0.059112974 0.031575944
000020 9f cb 50 bd 2c 28 52 3e 7e 08 c2 be 48 82 d6 3d
       -0.05097544 0.20523137 -0.37897104 0.10474068
000030 22 5c a1 ba 1e d9 b1 3d 02 a3 63 3d 9f 4a 5d 3d
       -0.0012310783 0.0868399 0.05557538 0.054026242
000040 03 51 c9 bd fb 84 88 bd ac 6d de be bf 7f b1 bc
       -0.09829905 -0.06665989 -0.43443048 -0.02166736
000050 27 5b d4 3c 77 a7 41 be 6f a7 0d bd e3 42 91 bd
       0.025922371 -0.18911539 -0.034583505 -0.07092836
000060 68 39 a2 3c e4 46 9c 3d 36 8e 88 3c d7 91 8e bd
       0.019802764 0.07630709 0.016669374 -0.069614105
000070 9d 8a a3 3c be cf 26 3e cd ec 9f 3d 08 db 2b 3c
       0.019963557 0.16290185 0.07808838 0.010489233
000080 c4 a9 66 bd 8a 5b b2 bd a0 a3 ed bc e6 c2 86 3d
       -0.056314245 -0.08708866 -0.029008687 0.06580143
000090 ad 77 c4 3c 08 f2 46 3d 40 48 7c be 10 78 20 3d
       0.023982847 0.048570663 -0.24636936 0.039177
0000a0 e2 65 87 bd 6c eb 11 3b d2 32 f1 3d 78 6e d6 bc
       -0.066112295 0.0022265567 0.11777271 -0.026175722
0000b0 29 50 e6 bd 7d 5a 87 3c e4 97 c1 3e fa b4 63 bc
       -0.11245758 0.01652264 0.37811196 -0.013898129
0000c0 f4 cc dd 3c 77 6b 97 bb 2c 12 45 3d d4 d8 95 bd
       0.027075268 -0.004620965 0.048113033 -0.07316747
0000d0 cb 71 38 3e 55 f6 c1 bd 49 7d dc be 73 57 e5 3c
       0.18012159 -0.09470812 -0.43064335 0.0279958
0000e0 4e cf 07 3f 4a ea a4 be 11 06 26 be c2 88 30 bd
       0.53050697 -0.32209998 -0.16213252 -0.043099172
0000f0 d2 80 f7 bc 19 2d 58 be 60 7c 2d 3d bb 53 3c 3e
       -0.030212793 -0.21110953 0.04235494 0.18391316
000100 fc 77 85 3d ab db 93 3d c1 7f 7d bc 10 7f 5c 3d
       0.06517026 0.07219633 -0.015472353 0.053832114
000110 22 31 a2 bd f0 c8 85 bb 4b f4 4f bd 77 df d4 b9
       -0.079195276 -0.0040827915 -0.050770085 -0.00040602285
000120 d2 a0 60 3c e2 c8 98 3c 50 bb 6c be e2 d9 22 3e
       0.013710218 0.018650476 -0.23118329 0.15903428
000130 ef 92 d3 3b cc 9e ce be 6d a1 4f bd 8f 18 e6 bb
       0.006456725 -0.40355527 -0.050691057 -0.0070219706
000140 d1 22 ef be ac 75 cc bc aa 90 28 bd 7f dc 8b 3d
       -0.4670625 -0.024958454 -0.041153587 0.06829166
000150 27 61 04 be 6c 98 48 bd 2b 5a ad 3e bb 38 4e 3e
       -0.12927686 -0.048973486 0.33857855 0.20138828
000160 40 ad 60 3e 89 0a 76 bd 32 2b 0d 3e 01 dd 9c 3e
       0.2194109 -0.06006864 0.13786009 0.30637363
000170 bc e1 fa bd b1 5d e1 bc e2 1b 35 bd 52 af 9e 3c
       -0.12250087 -0.027510496 -0.044216044 0.019370709
000180 cc 2e 81 bd 4a 74 1c 3e 9a 22 3b 3e 71 62 22 bd
       -0.06307754 0.15278736 0.18274918 -0.039644662
000190 6f 0a 8e bb a7 38 fb 3d 0e 3a 6e ba b4 fc a1 3d
       -0.00433474 0.12266665 -0.00090876303 0.079095274
0001a0 94 d5 1f 3e 8f 82 89 bc 1f 3e fd bd 5c 9a 39 3c
       0.15608817 -0.016785888 -0.12365364 0.011328306
0001b0 b5 f6 09 bc dd 73 21 bd 2b 0a 3f 3c c8 8a f8 bd
       -0.008420636 -0.039417136 0.011660139 -0.121358454
0001c0 94 ec 8d be 39 8e ce 3d a0 ac 0c bd 6b 34 7a 3e
       -0.27719557 0.100857206 -0.034344316 0.24434058
0001d0 c5 eb 1d 3c 8c 04 09 3e e6 cb 46 3d 96 66 27 3d
       0.009638731 0.13380641 0.048534296 0.040869318
0001e0 43 ab 61 3d b5 f9 62 bd 90 a2 cb 3c 75 7c 9b 3d
       0.05509497 -0.05541392 0.02485779 0.07592098
0001f0 ad e7 16 bc 07 50 04 3d a0 59 89 bd cb ac 9e 3c
       -0.009210509 0.032302883 -0.06706548 0.019369503
000200 4c 1d 9a 3d a2 f8 96 be bb 3a 32 3e 25 d9 b6 bd
       0.07525119 -0.29486567 0.17405216 -0.08928136
000210 5f c4 8c be b6 7f 97 3d 36 80 a9 3d 55 cc f6 be
       -0.2749357 0.07397406 0.082764074 -0.48202768
000220 8f eb ae 3d 79 31 23 3e 32 7c 9e 3e 69 6d 26 bd
       0.08541023 0.15936841 0.30954129 -0.040631685
000230 a0 de 95 3b 58 a5 dc 3d 08 b8 3a bd b4 81 21 bd
       0.004573658 0.10773724 -0.045585662 -0.039430335
000240 d5 fe cc bc b0 4b ff bb 13 8f 3e bd cc 80 a8 3c
       -0.025023857 -0.007791005 -0.046523165 0.020569228
000250 9e 90 b2 bd e5 ad db bd c2 64 10 3e 07 3f 91 bd
       -0.0871899 -0.10726527 0.14100936 -0.070921
000260 94 0a 3f 3e 46 dd c8 be 7c 1d 88 bd 3c 34 77 3d
       0.18656379 -0.39231318 -0.06646249 0.06035255
000270 4f 5b 4f be 8b 37 81 3d 1e ae b9 b8 48 59 ff ba
       -0.20249675 0.06309422 -8.853919e-05 -0.0019481564
000280 75 75 89 3d 57 6e 25 bd c3 2f 4e 3d 57 d5 89 bc
       0.06711856 -0.04038843 0.050338518 -0.016825361
000290 86 32 25 be 25 f0 31 be 79 00 21 be a0 f8 07 3b
       -0.16132554 -0.17376764 -0.15722837 0.0020747557
0002a0 98 20 4f 3d 72 c4 e3 3c 24 1d 87 bc 61 fb 8d 3e
       0.050568193 0.027803633 -0.016493388 0.2773085
0002b0 40 25 9f bc 32 b3 4a be 86 6a 46 be c0 31 23 3d
       -0.019426942 -0.1979492 -0.19376573 0.039842367
0002c0 f6 f6 16 3d ce 1c 79 3d be ed 5b be 17 67 6a bd
       0.036856614 0.060818486 -0.2147741 -0.05722722
0002d0 76 78 9c bd d8 6e 38 3d 7d 35 51 3b 10 7d 41 be
       -0.076401636 0.045027584 0.003192275 -0.18895364
0002e0 0f ac d2 be af 75 8e be f8 bb 8a bb d6 e0 76 bc
       -0.41146895 -0.2782416 -0.0042338334 -0.0150682535
0002f0 0e 99 cd bb 07 e6 81 bd da 19 95 3d 05 2f 96 bd
       -0.006274349 -0.06342702 0.072803214 -0.07333187
000300 f9 56 bc be 10 ff 98 be 91 a3 a5 be ff 0c a1 be
       -0.36785105 -0.29882097 -0.32351354 -0.31455228
000310 33 14 65 3c a2 92 52 bd e0 28 b5 bc 2f 58 44 be
       0.013981867 -0.05140937 -0.022114217 -0.19174264
000320 9b c3 4b 3e 8e b8 b6 bc 20 b5 c8 3c b0 8f 5c 3d
       0.19898836 -0.0223048 0.02450043 0.05384797
000330 8c 39 41 be 45 5c 21 b8 25 77 95 3d 27 5f 1c bd
       -0.18869609 -3.8471324e-05 0.07298116 -0.03817668
000340 09 7c b9 3d 20 96 9b 3d 8e 5e 39 3e 58 14 8d 3e
       0.09056861 0.075969934 0.18102476 0.27554584
000350 81 8e 82 3d 47 9e 14 3c 17 d6 82 bd dd 94 98 3d
       0.06374837 0.009070939 -0.06388491 0.074502684
000360 83 3a 29 bd 21 6e 0f be 6c 9b 51 be 61 4e 9f bc
       -0.041315567 -0.14006855 -0.20469445 -0.019446554
000370 00 17 89 3d 50 ac 0e 3d 6d 72 d6 3d c0 09 b2 3e
       0.0669384 0.0348323 0.10471044 0.34773064
000380 26 41 dc be 6a ab c3 3b 31 57 d4 bd 80 09 ee 3b
       -0.43018454 0.005971362 -0.10368193 0.007264316
000390 c8 f1 88 3d be b3 09 3d 80 4a d6 bc a7 e1 1e 3d
       0.06686741 0.03361868 -0.026158571 0.038789418
0003a0 c1 33 47 bd 40 a6 37 bd aa c7 9e be da 10 1f 3e
       -0.04863334 -0.044836283 -0.31011707 0.15533772
0003b0 cd 0e 6d 3d e4 b7 ce be 4c d4 b0 3d 59 25 57 3e
       0.057875443 -0.40374672 0.086342424 0.21010341
0003c0 a3 47 4d 3d 68 42 26 3d 03 f4 31 3d f6 5a bf bc
       0.050117146 0.040590674 0.0434456 -0.023358803
0003d0 a0 f4 69 be 1b a0 98 3d 1c de 9f 3d b4 c2 8f bd
       -0.22847223 0.07452413 0.07806036 -0.070195585
0003e0 a5 d2 73 3d 1d fa bd 3d c1 06 60 bd d2 c4 7a bc
       0.05952706 0.09276221 -0.05469394 -0.015305715
0003f0 03 1c 93 3d e4 4a a5 bb 94 2f 30 3e 43 73 b8 be
       0.07183077 -0.005044328 0.1720565 -0.36025438

fc2.bias f4 [84]
000000 ce 24 8e 3e 4e 29 b8 bd c7 fa 33 be 77 17 21 bd
       0.27762455 -0.08992253 -0.17576133 -0.03932902
000010 be 5c 82 ba a2 11 10 3c cb 5e 02 be 3a cd 18 be
       -0.0009945852 0.0087932665 -0.12731473 -0.14922038
000020 68 b9 a8 3e 85 e8 38 be 4b a8 96 3d e0 c3 66 3e
       0.32953954 -0.18057449 0.07356318 0.22535658
000030 d8 59 92 3d 3c 97 20 bd 2f 30 c9 3e 0c d6 73 be
       0.071460426 -0.03920673 0.39294574 -0.23812121
000040 92 24 2a 3e 15 e0 fa 3e b3 69 99 be e5 f7 9c 3d
       0.16615513 0.48999086 -0.29963455 0.0766447
000050 12 3d fe bc 7f 62 59 bc 56 39 d6 3e b1 96 01 3f
       -0.03103498 -0.013268112 0.4184062 0.5062056
000060 84 1a ab 3e cd ca 58 be 73 3f 00 be 32 c4 06 3f
       0.33418667 -0.21171112 -0.12524204 0.5264312
000070 cc a2 7d be e5 9a 27 be 0e 2e 19 3e 1d 33 d5 3e
       -0.24769133 -0.16367681 0.14958975 0.4164056
000080 8b 0a 99 bd d0 1c 0d be 9d 10 82 3e 74 24 fc 3c
       -0.07472714 -0.13780522 0.254033 0.030779101
000090 c4 a6 40 be ed 0f 09 be c2 0a 31 3f 5a ef 6e 3d
       -0.18813616 -0.13384981 0.6915704 0.058333732
0000a0 af 65 57 3e e4 a7 1f be 7d f5 10 bd 8a 89 f8 3d
       0.21034883 -0.15591389 -0.035390366 0.121356085
0000b0 8b a9 07 bd 34 5a 8f 3e 0d d4 11 be 34 b7 1a 3f
       -0.033120673 0.27998507 -0.14241047 0.60435796
0000c0 8a 5e 07 be c5 ae e7 be 79 5d 00 3f 7e 04 dd be
       -0.13219658 -0.45250526 0.5014263 -0.4316749
0000d0 92 45 11 3f c6 12 ec 3d 56 48 24 bf 83 66 85 3e
       0.5674678 0.11527018 -0.64172876 0.26054773
0000e0 e5 fd df bc 60 b1 33 bd be 08 a2 3d ca b8 1f 3f
       -0.027342746 -0.04387033 0.07911824 0.6239134
0000f0 7a 66 96 3e 68 7d 43 3e 69 61 99 bc 02 77 97 3d
       0.29375058 0.19090807 -0.018723207 0.07395746
000100 63 12 4b bd f3 0c 83 3e dc 84 8e 3d 72 36 de 3e
       -0.04957808 0.25595817 0.06958935 0.43400913
000110 0d a5 0a 3d df bf d5 bd 99 b8 30 be 11 6a 04 be
       0.03384881 -0.10436987 -0.17257918 -0.12931086
000120 e1 6d a9 bd 08 25 cf 3e f9 b8 14 3f a4 d4 91 bd
       -0.08272911 0.4045794 0.58094746 -0.07120636
000130 b4 22 b5 3c 52 74 2f 3f c9 06 24 be 7c 74 aa 3c
       0.022111274 0.68536866 -0.16018213 0.020807497
000140 08 a4 de 3d 78 be ee bd 13 52 d6 be e5 f3 4b 3f
       0.1087113 -0.11657423 -0.41859493 0.7966903

fc3.weight f4 [84, 84]
000000 94 cf 5d bb 9b 6c b5 3d a1 8f 05 bf 12 bc af 3e
       -0.003384565 0.088586055 -0.52172285 0.34323174
000010 e0 82 cb 3e 0a 9f a5 bd ea 8d 07 3d ee 77 33 bd
       0.39748287 -0.08086975 0.033094324 -0.043815546
000020 6e 6b 4b be 72 47 cd bd 12 1d 63 3e 30 f0 1a 3c
       -0.198652 -0.10023393 0.22179058 0.009456679
000030 b2 0b 0a 3e 67 42 6f 3e f6 a8 c4 bc 65 93 d6 bd
       0.13481024 0.23365174 -0.024006348 -0.10477332
000040 48 0e 22 be 18 6d 82 be bc 4b 54 3e 80 a9 1f bd
       -0.1582576 -0.25473857 0.20732015 -0.038980007
000050 ef 1d 06 3f ea 78 94 be db cb 69 be 8d 38 2f 3e
       0.52389425 -0.289985 -0.22831671 0.17111416
000060 37 55 35 be 19 8c ff 3d 59 bf 2e 3d 2c 01 1d be
       -0.17708288 0.124778934 0.042662952 -0.15332478
000070 81 ab e1 3b ea cf d8 bb 30 4c 1c be e5 26 31 3e
       0.0068869 -0.006616582 -0.15263438 0.17299993
000080 e6 e5 6e 3d 63 d0 aa 3d bb 66 13 be 0b 85 c5 be
       0.058324717 0.08340528 -0.14394657 -0.38578066
000090 07 17 de bc ac 4a ab 3e 51 f4 96 3d ba fd 6a bd
       -0.02711059 0.33455408 0.073708184 -0.05737088
0000a0 1d c5 19 3e c3 97 10 3e ca 5f a1 bd b3 8f 3b 3d
       0.15016599 0.14120393 -0.078795984 0.04579134
0000b0 3e 62 09 bd cf eb e0 3d da e7 22 3d ea c6 93 be
       -0.033540957 0.10982477 0.039771892 -0.28862697
0000c0 c0 68 34 be dd dd 6b 3d 44 df 59 3e a0 7a f8 3d
       -0.17618084 0.057584632 0.21276575 0.12132764
0000d0 8c 29 92 3d ef 87 e8 bd 39 13 eb 3d 5c a0 83 3e
       0.07136831 -0.11354052 0.11478276 0.25708282
0000e0 1c 79 7b 3d 2d 2c 5e 3d fb d0 47 bb f4 50 07 be
       0.061394796 0.054241348 -0.0030489552 -0.13214475
0000f0 04 95 4c bd 83 a4 84 3b b9 7c 65 bb 61 bf 7d be
       -0.0499468 0.0040479316 -0.0035016967 -0.24780037
000100 4e 45 42 3e e2 2f 9a bd c3 c8 25 be 5e d7 1f be
       0.1897175 -0.07528664 -0.16189866 -0.156095
000110 60 12 9d bd 46 41 45 3e 71 9c cc 3d 1a d1 8a bc
       -0.076695204 0.19263181 0.09990776 -0.01694541
000120 c9 05 fc bd 61 f6 2c be 9d c8 bf bd 31 d2 1e 3e
       -0.12305791 -0.16890861 -0.09364436 0.15509869
000130 ad 71 77 bd 2a 79 e7 bd ca 4f 20 3e 5c 63 b8 bd
       -0.060411144 -0.11302407 0.15655437 -0.09003326
000140 8a 14 5f 3e 01 2d 09 3d d1 f9 8e bd 90 51 f3 bd
       0.21785179 0.033490185 -0.069812424 -0.11880791
000150 ca 4e 57 3d 87 03 a3 3e a3 6e 97 3d 81 0a fc 3d
       0.052565373 0.3183863 0.07394149 0.12306691
000160 6f b3 9c bb 13 28 ac 3d 1e a7 24 bd 4d 35 5a bc
       -0.0047821323 0.08406081 -0.040198438 -0.013318372
000170 39 28 4c be d1 22 16 3e 99 cf 4f 3e e1 e2 d7 3d
       -0.19937219 0.14661719 0.20294036 0.105413206
000180 dc 64 bc 3e 2c 3e 41 be c8 42 01 be ab 1c f3 bd
       0.367957 -0.18871373 -0.12623131 -0.11870702
000190 07 a6 70 be 00 b0 1b be 26 81 33 3e 01 44 db 3e
       -0.23500834 -0.15203857 0.17529735 0.4282532
0001a0 67 2c 16 3f b4 b9 8b 3e a6 e3 1f bd 00 18 4e bc
       0.586615 0.27290118 -0.03903546 -0.012578964
0001b0 29 b0 5e 3e 9f 99 b2 3e 93 49 d4 3d e2 0b 01 3e
       0.21746887 0.3488283 0.10365596 0.12602189
0001c0 18 63 34 be 94 73 7e bd 46 7c 1e 3c 07 b2 91 3d
       -0.17615926 -0.062121943 0.009673184 0.07114034
0001d0 60 d1 85 3d ce 32 93 bd 27 0c 8f be 33 cf 69 3d
       0.06534076 -0.071874246 -0.2793896 0.057082366
0001e0 dd 01 19 3e 18 54 93 3e 34 28 8d be 52 2a 4b be
       0.14942117 0.28775096 -0.27569735 -0.19840363
0001f0 ae 17 71 bd eb 17 04 3e f8 d4 bf bd 16 c8 1a be
       -0.058860473 0.12899749 -0.093667924 -0.15115389
000200 50 40 37 ba df 00 24 be b7 37 54 3d 4e d0 68 bd
       -0.00069904793 -0.16015957 0.051810946 -0.05683928
000210 8a 23 44 3d 99 83 f7 bb ca fb ed be bc bb 85 be
       0.047885455 -0.0075535295 -0.46481162 -0.26119792
000220 3e f4 b1 3d e0 99 c8 3d 30 f2 55 be 2e bb 78 be
       0.086891636 0.09794974 -0.20893168 -0.24290153
000230 d7 8a 55 3e 29 97 20 3d 7c 55 90 be 2e 22 b0 be
       0.20853744 0.039206658 -0.2819022 -0.34401077
000240 99 74 f5 3e 94 90 c2 be d0 a9 de bb 29 90 33 be
       0.4794052 -0.3800093 -0.0067951456 -0.17535461
000250 59 58 01 3d 4f a9 d2 be 2a 97 68 bd 3e bd 9e bd
       0.031578396 -0.41144797 -0.056784786 -0.07750939
000260 9d 63 8a be 73 9c 04 3e 62 4e a0 3d 03 33 23 3e
       -0.27029124 0.12950306 0.0782745 0.15937428
000270 36 b5 86 be 75 ab ff be db f9 53 bc 76 fe c8 be
       -0.26310128 -0.499355 -0.012937988 -0.39256638
000280 22 a5 8c 3d 8f 05 18 3e 85 fe 1a 3e de ac 24 3c
       0.06867434 0.1484587 0.15136154 0.01005098
000290 90 14 3c be d7 33 89 3b d6 09 31 bd 80 63 8d 3d
       -0.18367219 0.004187088 -0.04322227 0.06903744
0002a0 09 48 0e be 8f 14 2d 3e e0 69 97 be a3 c6 13 be
       -0.13894667 0.16902374 -0.29572964 -0.14431243
0002b0 e3 72 75 3d b5 ff ac be 5e d3 77 bd 4b da 6b 3d
       0.059924018 -0.3378884 -0.06050431 0.057581227
0002c0 62 22 1b 3d c2 b5 31 3e 54 04 cf bd c5 5e 4e be
       0.037874587 0.17354491 -0.101082474 -0.20153339
0002d0 17 40 16 bd 7f 29 79 3e a1 7e 01 be f7 fe 49 be
       -0.036682215 0.24332236 -0.12645961 -0.19726168
0002e0 70 ee 5a be 55 fa 86 3c c4 f4 c7 3d d4 7e b1 3c
       -0.21380019 0.01647679 0.09763482 0.021666922
0002f0 32 73 c5 be 4b 74 74 3e af 42 83 3e 3d a6 d7 be
       -0.3856445 0.23872487 0.25636813 -0.42119017
000300 dc 45 dd 3d 1f f4 11 3e df 20 e4 3d c0 bb 25 be
       0.1080434 0.14253281 0.11139082 -0.16184902
000310 c6 86 43 be 0d 82 0d be 35 c8 97 be 6b 91 98 3e
       -0.1909438 -0.13819142 -0.29644933 0.29798445
000320 e8 3b 27 3c ab 8e bf 3d 7a d5 47 bd 6a fc d4 bc
       0.010207154 0.09353384 -0.04878757 -0.025999267
000330 65 07 58 3d 1c 6b 19 be 2d 05 cd 3d 9a 22 a7 be
       0.052741427 -0.14982265 0.10010753 -0.32643586
000340 30 64 22 bd 98 3e 50 3d 7a e8 b1 bb c5 d9 a5 be
       -0.039646327 0.050840944 -0.0054293247 -0.32392707
000350 c9 10 d9 bd c5 78 42 3e 81 4a 1c bc 97 26 84 be
       -0.10598905 0.18991382 -0.0095392475 -0.25810692
000360 2c 40 10 3d 31 97 ca 3d 65 7d 40 3e eb 32 92 3c
       0.03521745 0.09892119 0.18797834 0.017846545
000370 05 2c d9 3d bb 35 a0 bd af 36 9d 3c 48 bf bb 3d
       0.10604099 -0.07822748 0.019191114 0.091673434
000380 33 28 f2 3d 9f dc da 3d f8 8e ed 3e 14 ed b3 bc
       0.11824074 0.106866114 0.4639814 -0.021963634
000390 62 ec ad 3d 19 3d 2a 3e 3e 37 ef 3a 18 32 94 bd
       0.08492352 0.1662487 0.0018250716 -0.07236117
0003a0 1c f5 c9 bc 86 81 21 3e 40 fa 0b 3e 43 68 e7 bc
       -0.02465301 0.15772066 0.13669682 -0.028247958
0003b0 bc a0 43 bd e3 86 74 3d a7 08 d2 bd 17 75 7f be
       -0.04776071 0.05969895 -0.102555566 -0.2494701
0003c0 a8 1e a3 bd 3f 1c 45 be 23 83 5f be f8 91 96 bd
       -0.079648316 -0.19249056 -0.21827368 -0.0735206
0003d0 f2 a6 17 3e ed 0c 59 3e 0e c2 34 bc ce 59 70 be
       0.14809778 0.21196337 -0.011032594 -0.23471758
0003e0 b7 3d 1b bd 33 8a 78 bc 6b 1e 6c 3e da 7b c2 3d
       -0.037900653 -0.015169668 0.23058479 0.09496279
0003f0 f0 a0 4a be 52 5f 0a 3e 84 6a d3 bd 51 d5 43 be
       -0.19787955 0.13512924 -0.103230506 -0.19124343

fc3.bias f4 [84]
000000 2a 52 80 3e c4 2c b1 3d 1d ce 6f 3e 37 f7 b0 3e
       0.25062686 0.086511165 0.2341847 0.3456361
000010 9e 90 5d bd 98 14 2b 3e fa b8 ac be 6f 72 b7 bb
       -0.054092996 0.16707075 -0.33734876 -0.0055983583
000020 27 34 0f 3d b6 8a 28 be 12 a9 4a be 6a 85 de bd
       0.034961846 -0.16459164 -0.19791058 -0.108652905
000030 9c 41 47 3f fd ea 7b 3f b7 87 e4 bd 24 ff 1e be
       0.77834487 0.9840544 -0.11158698 -0.15527016
000040 f3 96 41 be 72 13 df bc 8f 36 39 be 3b f6 79 3e
       -0.18905239 -0.027230952 -0.18087219 0.24410336
000050 fe c9 81 3e b9 ba 8b 3e 7a 88 b6 3e b6 da 64 3f
       0.2534942 0.27290896 0.35650998 0.89396226
000060 53 a9 43 be 3c 5e 9f be 62 d3 c2 bc 50 6a 88 be
       -0.19107561 -0.31126583 -0.023782436 -0.2664361
000070 de 62 f8 3e 44 00 30 bd 76 07 9e 3b a1 f5 c6 3e
       0.4851293 -0.042969003 0.0048226668 0.38859275
000080 a7 37 2a 3f 8d b7 b8 bd fd f4 b4 be e9 14 9b bd
       0.6649117 -0.090193845 -0.3534316 -0.07572348
000090 c3 d6 51 be 0d c8 6a bd be 13 6b 3e 1c f0 83 3e
       -0.20492081 -0.05731969 0.2295675 0.25769126
0000a0 14 7c 0a be 28 7d b3 be 26 fc 04 3f 46 a6 c2 be
       -0.13523895 -0.35056424 0.5194725 -0.38017482
0000b0 17 d1 26 3f 74 70 41 be 24 eb dc bd 0b 91 ea 3d
       0.65162796 -0.18890554 -0.10787037 0.11453446
0000c0 1f 2a 17 be bd ab b5 bd f2 30 ef bd 60 45 88 be
       -0.14762162 -0.08870647 -0.116792575 -0.2661543
0000d0 34 37 0c 3f 6a 20 8a 3e f6 0f e4 bd 87 7d b8 3e
       0.54771733 0.26977855 -0.11135857 0.3603327
0000e0 62 0e b3 3e be 1e 85 3e fe 04 12 3d 64 5d 4e be
       0.3497191 0.26000017 0.035649292 -0.20152813
0000f0 b6 cc 66 be 32 d2 49 3d f7 dc 4a bd 28 f2 ff bd
       -0.22539029 0.049272723 -0.049527135 -0.124973595
000100 74 4d 7a be 91 e8 61 be 13 a2 e4 bd ce 36 2b 3f
       -0.24443609 -0.22061373 -0.11163726 0.668805
000110 d7 6f b3 3e 5a 49 18 3f 71 dc c0 be 36 26 55 be
       0.35046265 0.59486926 -0.37668183 -0.20815358
000120 c0 07 87 3e 56 0c 68 ba df d5 09 be 54 45 96 be
       0.263731 -0.0008851936 -0.13460492 -0.29349768
000130 93 f6 f7 3c 53 9e 3d be 27 ba db bd fa 88 9a 3e
       0.030268943 -0.18517427 -0.10728865 0.3018263
000140 e1 a5 12 be 9c 3f 9d be f2 f0 8d 3e f3 9f 2d be
       -0.1432109 -0.30712593 0.2772289 -0.16955547
