Machine_Learning/PyTorch/my_iris_model.pt (torch, 3485 bytes, 6 tensors)

fc1.weight f4 [8, 4]
0.121016555 -0.4387612 -0.4621171 -0.043890372 -0.3870318 0.07934177 0.14807653 -0.4770878
0.34689212 -0.032908842 0.67460954 0.11879416 0.52468383 0.07871283 -0.58119833 -1.2611101
0.5319204 -0.40894306 0.91816056 0.9560657 0.38945076 0.7214184 -0.8326609 -1.0596836
0.16464484 -0.111353755 -0.42134798 -0.3553493 -0.31912696 0.14395738 -0.3496034 0.22803837
00000000: 87d7 f73d 4fa5 e0be 9d9a ecbe 64c6 33bd
00000010: 0829 c6be f07d a23d 60a1 173e da44 f4be
00000020: d89b b13e 6ccb 06bd 36b3 2c3f 5a4a f33d
00000030: ae51 063f 3134 a13d 6ac9 14bf 0e6c a1bf
00000040: ef2b 083f fc60 d1be 920c 6b3f b9c0 743f
00000050: 1766 c73e e0ae 383f 4429 55bf b6a3 87bf
00000060: a898 283e 700d e4bd ecba d7be 58f0 b5be
00000070: 9c64 a3be 9069 133e 38ff b2be e482 693e

fc1.bias f4 [8]
0.18574579 -0.20286602 1.2744378 2.5196 -1.2727648 2.2371686 -0.31223232 0.3780589
00000000: 2534 3e3e 1cbc 4fbe c720 a33f 2041 2140
00000010: f5e9 a2bf c52d 0f40 eadc 9fbe f090 c13e

fc2.weight f4 [9, 8]
-0.2174119 0.08211541 0.10358708 -0.35338488 -0.41863796 0.09998044 -0.3494075 -0.263886
0.17289954 -0.11852983 1.0247514 -0.22666754 0.7031823 -0.96288437 0.06991243 -0.32654905
-0.35454908 -0.2716259 -0.0037226023 -0.86124915 0.8201844 -1.0232905 0.30476496 -0.21013083
-0.07369689 -0.060686797 0.17708813 -0.041777134 -0.13244082 -0.11843714 -0.30017546 -0.11276427
0.12664877 -0.19118746 -0.05861088 -0.915674 0.89415324 -0.4465553 -0.20340693 0.011390448
-0.019687474 0.06268561 -0.22976097 -0.22057456 -0.051930577 -0.2718181 0.03937459 -0.1807519
-0.25721517 -0.017445713 0.40366468 0.020914244 0.9058077 -0.65547556 -0.11047746 -0.062431544
-0.129724 -0.34292972 0.8901029 0.6731476 -0.3609313 1.0739232 -0.35234165 0.31245807
-0.337548 -0.20817648 0.122506276 -0.160508 -0.1771747 -0.31122246 0.10800251 0.2850211
00000000: 3aa1 5ebe 202c a83d 7725 d43d ddee b4be
00000010: b757 d6be 8cc2 cc3d 8ae5 b2be 111c 87be
00000020: 940c 313e c4bf f2bd 0e2b 833f 891b 68be
00000030: c103 343f 977f 76bf 402e 8f3d 7031 a7be
00000040: 7587 b5be 8d12 8bbe e7f6 73bb d37a 5cbf
00000050: 9bf7 513f 2ffb 82bf 270a 9c3e 892c 57be
00000060: 65ee 96bd b892 78bd 9756 353e 801e 2bbd
00000070: 919e 07be 2c8f f2bd 99b0 99be f4f0 e6bd
00000080: 37b0 013e a5c6 43be f611 70bd 9c69 6abf
00000090: 3ae7 643f e5a2 e4be e849 50be 009f 3a3c
000000a0: a047 a1bc 5061 803d 7646 6bbe 4cde 61be
000000b0: 28b5 54bd be2b 8bbe 4047 213d 0717 39be
000000c0: b5b1 83be 50ea 8ebc 23ad ce3e 5954 ab3c
000000d0: 03e3 673f 3fcd 27bf 0242 e2bd 38b8 7fbd
000000e0: 5ed6 04be 7c94 afbe c9dd 633f 6753 2c3f
000000f0: fdcb b8be 5176 893f 2066 b4be 81fa 9f3e
00000100: 17d3 acbe 372c 55be 92e4 fa3d 365c 24be
00000110: 496d 35be 8d58 9fbe 6c30 dd3d 49ee 913e

fc2.bias f4 [9]
0.017856976 0.7264344 -1.6770717 -0.44347152 -1.1189632 -0.035856277 -0.087731905 0.78965366
-0.028914224
00000000: cb48 923c 9bf7 393f 49aa d6bf b30e e3be
00000010: 303a 8fbf 08de 12bd c9ac b3bd be26 4a3f
00000020: 86dd ecbc

out.weight f4 [3, 9]
-0.13862304 -0.6600982 -0.16075362 -0.03740769 -0.74439025 0.22666267 -0.6748304 0.8854169
0.29019853 0.099048994 0.7642929 -1.3877399 -0.13457198 -0.9643233 0.27184823 0.4872087
0.07984727 0.20519532 -0.19358987 0.21992388 1.0447624 -0.037271935 0.9365626 -0.32192153
0.8244667 -1.2339547 -0.08756613
00000000: 33f3 0dbe 32fc 28bf 999c 24be ce38 19bd
00000010: 5c90 3ebf 421a 683e afc1 2cbf afaa 623f
00000020: e794 943e 33da ca3d b3a8 433f 76a1 b1bf
00000030: 3dcd 09be e4dd 76bf b12f 8b3e 6b73 f93e
00000040: f786 a33d b91e 523e 6c3c 46be ba33 613e
00000050: c6ba 853f 75aa 18bd 91c2 6f3f e6d2 a4be
00000060: 4010 533f 3af2 9dbf df55 b3bd

out.bias f4 [3]
0.58268666 -0.09001954 -0.7093049
00000000: f42a 153f 2a5c b8bd 0295 35bf
