Machine_Learning/PyTorch/TaxiModel.pkl (torch, 117574 bytes, 20 tensors)

weight f4 [24, 12]
000000 f0 b3 98 be d0 14 0b bf 4e 96 16 bf b5 ca 57 3e
       -0.2982478 -0.5432863 -0.58823097 0.2107342
000010 bc 3c da 3e 6c f7 57 bf 70 b7 18 3f b5 4c 71 be
       0.42624462 -0.8436191 0.59654903 -0.23564418
000020 5a bc 28 bf 4c 62 a2 3f 00 8f ca be fa 43 34 3f
       -0.659124 1.2686248 -0.39562225 0.70416224
000030 22 86 42 3c 2d 1e ca be ee d7 62 bf 99 18 bb 3f
       0.0118728 -0.39476147 -0.8861073 1.4616882
000040 eb 6c a5 be 2d 6b b3 bf e1 77 4a be 25 88 23 bf
       -0.3230966 -1.4017082 -0.19772293 -0.63879615
000050 5a 27 e5 be 1b c0 ca 3f 75 16 95 bf ea 6f 88 3f
       -0.44756585 1.5839876 -1.1647478 1.0659153
000060 b4 d0 c2 be 21 8e cd be e2 7f 71 bf 70 8d 82 3f
       -0.38049853 -0.40147498 -0.9433576 1.0199413
000070 61 cd 91 3e 8a ae 1e bf bd 7f 17 bf 72 15 a5 bf
       0.28477004 -0.61985075 -0.5917929 -1.289717
000080 8e 2d 2c bf 2e d0 62 3f 37 9d 43 bf 8d 87 36 3f
       -0.6725701 0.88598907 -0.76411766 0.71300584
000090 9f f4 c4 be 10 35 2c bd d8 20 8a be a4 e4 73 3f
       -0.3846788 -0.04204279 -0.26978183 0.9527075
0000a0 1c 28 1c be e5 36 14 bf 63 eb 57 be a4 a0 5d 3f
       -0.15249676 -0.5789626 -0.21085887 0.86573243
0000b0 1d 58 ea be 81 c1 c9 3e 02 8f c2 be ed e0 fa 3e
       -0.4577035 0.39405444 -0.3799973 0.4899973
0000c0 26 18 0e be 9e df 93 3e e6 6c a1 3f 7e 52 08 be
       -0.138764 0.28881544 1.2611358 -0.13312718
0000d0 60 60 e5 be 13 20 77 bf 07 6c 06 bf 39 9e 86 3f
       -0.4480009 -0.96533316 -0.52508587 1.0517036
0000e0 6d 69 24 3f 64 e6 9e be dc f9 8c bd 9a 0b 06 3b
       0.64223367 -0.3103515 -0.068835944 0.0020453692
0000f0 2b 33 13 3f 3d f8 98 3e 7d 63 4c 3f ea 25 df bf
       0.5749995 0.2987689 0.7983931 -1.7433445
000100 ec 53 f5 be d2 78 7d bf 69 85 5e bf 45 6b 8a 3d
       -0.4791559 -0.9901248 -0.8692232 0.06758741
000110 3c 40 d0 be 5d 33 a1 be 91 cf e4 3e d7 42 b9 be
       -0.40674007 -0.314845 0.4468961 -0.36183807
000120 1a 20 ab 3e d1 20 d0 3d 18 2f 32 3f 21 67 8c bf
       0.3342293 0.10162509 0.6960311 -1.0968972
000130 dc a6 f7 be f0 2b 23 bf a7 92 1d 3f 1d 2d 82 be
       -0.4836949 -0.6373892 0.615519 -0.25425044
000140 6d 8a 31 3f 96 5d 01 bf be e7 1a 3f ff 83 d0 3e
       0.69351846 -0.50533426 0.6050986 0.40725705
000150 ff 2a 59 3f 09 b1 51 3d ee f4 ae 3e b6 d7 11 bf
       0.8483123 0.051194225 0.34171242 -0.56969774
000160 c4 ea e5 be 4a b8 fa 3d d8 56 7d 3d ab 86 08 bf
       -0.44905674 0.122421816 0.0618504 -0.53330487
000170 cd dd ec 3d 5e e6 3d bf 8f 6c 94 3e ac 5c 1f bf
       0.11565743 -0.7417964 0.28989074 -0.6225078
000180 75 da c0 3e 9e 38 56 3e 38 d9 b6 3f e9 df f7 3e
       0.3766667 0.20920035 1.428504 0.48413017
000190 3e 45 ca be 1e 87 a2 3e 32 72 93 be c6 a8 15 be
       -0.39505953 0.3174371 -0.28798062 -0.14615163
0001a0 6e 0b 23 3f 95 1d b0 3c df 35 07 3f 33 ea 11 bf
       0.63689315 0.02149848 0.52816576 -0.56997985
0001b0 2e de ae 3e 23 dc d4 3e e5 d4 28 3f 4a 4d 88 be
       0.34153885 0.415742 0.6594985 -0.26621467
0001c0 d3 76 9f be 8a 16 fb 3e 54 06 cb be b3 e8 cd be
       -0.31145343 0.49040633 -0.39653265 -0.40216598
0001d0 9e 51 45 3f 7c 0d 1f 3f ed 9a 43 bf 09 f7 e0 be
       0.7707766 0.6212995 -0.76408273 -0.43938473
0001e0 00 f3 47 3e 5f ce 2d 3f a2 99 c5 3e 7b c8 81 be
       0.19526291 0.6789302 0.38593775 -0.25348267
0001f0 b6 29 37 3d b6 21 1b be 96 b9 32 bf 98 6d 2d 3e
       0.044717513 -0.15149578 -0.6981443 0.16936338
000200 13 f3 75 3f 25 db 10 bf 1a 81 a1 bf 51 ea 2a bf
       0.96074027 -0.5658439 -1.2617524 -0.6676379
000210 ca 1d cb 3e 92 76 0f 3f e5 23 fb 3c ac de 8b 3f
       0.39671165 0.560403 0.030656764 1.0927329
000220 24 6c 59 be 36 e1 28 3f 92 e0 ea 3d 03 da 04 bf
       -0.21232659 0.65968645 0.11468615 -0.5189516
000230 16 1b 11 bf 44 fe 8f bf f1 36 0f 3c 97 e9 31 bf
       -0.56681955 -1.1249471 0.008741126 -0.69497055
000240 54 1f 9b bc 4c 15 16 3f 71 4b b2 3d 85 8a 7b 3f
       -0.018935837 0.58626246 0.087057956 0.9825824
000250 8d c8 22 bf b1 c8 1c 3f 9c de 90 bf 91 6a 96 3f
       -0.63587266 0.6124373 -1.1317935 1.1751271
000260 35 f9 d4 be 37 b2 a5 be b2 4c 29 be f5 87 47 bf
       -0.4159638 -0.3236253 -0.16533163 -0.7794183
000270 7a 15 1d 3f 1a 88 06 3f 38 7a 8b 3d 9a 82 eb bc
       0.61360896 0.52551425 0.06810421 -0.0287488
000280 43 c3 0c bf 28 07 fe 3e 2a b4 3d be c0 83 20 3e
       -0.54985446 0.49614835 -0.18525758 0.15675259
000290 ca 87 c7 be b6 b7 1a bf ee 2e e2 be 84 0b 71 bf
       -0.38970786 -0.6043657 -0.4417643 -0.94158196
0002a0 fa 62 cb 3e 3b 21 97 bd bf 13 6d 3f 7a 13 45 bd
       0.3972395 -0.07379385 0.92608255 -0.048114277
0002b0 9d c4 26 bf ca c6 d9 3d 65 59 7d 3f 06 d3 e3 be
       -0.6514376 0.10633619 0.9896453 -0.44496936
0002c0 52 5a 0f bf 57 49 d0 be b5 db de 3e 53 1a 0f bf
       -0.5599719 -0.40680954 0.43526998 -0.5589954
0002d0 ab ff bd bd b8 df 17 be e3 a7 82 bd cd a4 a8 be
       -0.092772804 -0.14831436 -0.06379678 -0.32938233
0002e0 cd 38 15 3f 1e 90 87 3e a2 e2 b0 bb 91 6d ee bf
       0.58289796 0.2647714 -0.0053981105 -1.8627187
0002f0 2c 8e 2e 3d 99 a0 e6 bd 6b 83 d2 bf 9c f8 86 be
       0.042616054 -0.112611 -1.6446356 -0.2636155
000300 93 8a 30 bf 03 da 65 bf b3 25 3b be f0 83 37 bf
       -0.6896145 -0.89785784 -0.182761 -0.71685696
000310 57 a0 1b 3e 6c 2f 97 3e aa f3 46 3f 19 66 2b 3f
       0.15197884 0.29528368 0.7771555 0.66952664
000320 18 9e 1b 3e f1 0d 5f 3d 1a 89 30 bf 3f 32 50 bc
       0.15197027 0.054456655 -0.689592 -0.012707292
000330 22 dc 72 bf 61 91 8e bf 90 51 ef be 52 6c 3b bf
       -0.94867146 -1.1138116 -0.46741915 -0.7321216
000340 fb 34 89 3e e1 89 b5 3e 43 cb 6a be 1f 91 76 bb
       0.26798233 0.35456756 -0.229291 -0.003762312
000350 3c 5e 7f be 9a 22 62 bc 48 7e 17 3e 7a 70 77 3e
       -0.24938291 -0.013802195 0.14794266 0.24164
000360 13 e6 9a bf 57 43 31 bf 73 93 cf be fd f7 87 bf
       -1.2101463 -0.6924338 -0.40542182 -1.0622555
000370 41 bb 03 3f 77 aa ae bd 59 8e 70 3f 4c 3a 7f 3e
       0.514576 -0.08528607 0.93967205 0.24924582
000380 d6 be f9 be 53 6f 99 bd ea a3 73 bd 64 43 7c bd
       -0.4877841 -0.074919365 -0.059482493 -0.061587706
000390 61 95 b8 bf 8c f6 09 bf 23 0a 0f bf 23 d0 ac 3c
       -1.4420587 -0.53891826 -0.5587484 0.021095341
0003a0 1b 22 31 3e 93 1a 95 3e 09 87 ac 3f e1 c7 4a 3e
       0.17298166 0.29121837 1.347871 0.1980281
0003b0 e8 a1 f9 3d 0d cb 1f 3d 61 e8 4a 3e 3a 01 c5 3e
       0.12189084 0.039012004 0.19815208 0.38477498
0003c0 98 2e d7 bf b8 c7 56 bf 3c af fc be 12 a3 61 be
       -1.6811094 -0.83898497 -0.49352443 -0.22034863
0003d0 fa b0 c3 3e c9 c6 ad be 8e 53 b3 3e 00 6f e6 bf
       0.3822096 -0.33940724 0.35024685 -1.8002625
0003e0 fa ea 6a bb e2 d6 26 3e e4 fa f3 bd a6 ef d9 3e
       -0.0035845623 0.16292909 -0.11913088 0.4256565
0003f0 66 ba d4 bf 57 78 b7 bf fc 9b 74 bf 89 b5 67 bf
       -1.6619384 -1.43336 -0.95550513 -0.90511376

weight f4 [2, 1]
000000 5f 8d b0 bd f1 98 56 3e
       -0.086207144 0.2095678

weight f4 [7, 4]
000000 fd 2b 0e bf 00 dc 76 3e c6 3b f4 3d c8 5e e6 be
       -0.5553587 0.24107361 0.119254634 -0.44994187
000010 f6 14 48 3f 96 44 f2 be 6e d8 7d 3f 85 8e a4 3d
       0.78156984 -0.47317952 0.9915837 0.08034996
000020 56 e3 d1 be 21 95 d4 be ad ca c1 bf 29 21 fe 3e
       -0.40993756 -0.41520026 -1.5139977 0.49634674
000030 5a 77 09 3f 27 25 12 bf 85 77 a3 bf 1d 69 bb bf
       0.5369774 -0.5708794 -1.277085 -1.4641453
000040 e6 d1 cb be 90 1e 87 3e fa 58 32 3f 6e 6e 71 be
       -0.39808577 0.26390505 0.6966702 -0.23577282
000050 55 66 75 3f 5e 4a bb 3e 8c cf 43 be 64 44 02 3f
       0.9585927 0.36580175 -0.19122142 0.50885606
000060 51 0e 87 3c d0 a6 c7 3d f2 98 24 3e 2e 66 77 be
       0.016486319 0.09748614 0.16073969 -0.24160072

weight f4 [6]
000000 6d 9d 97 3f d4 1b 88 3f 6a f8 ae 3f 19 49 92 3f
       1.1844918 1.0633492 1.366956 1.1428558
000010 01 14 c9 3e b4 5a ac 3f
       0.39273074 1.346518

bias f4 [6]
000000 a7 f6 6f be a1 dd 9b be b8 a6 7c 3d 85 e6 af bd
       -0.23433934 -0.30442527 0.061682433 -0.0858889
000010 af 83 3a bf 2f 35 af be
       -0.72857183 -0.34220263

running_mean f4 [6]
000000 23 f4 93 c2 6f 01 23 42 14 f3 93 c2 df 01 23 42
       -73.97683 40.7514 -73.97476 40.751827
000010 77 95 ac 3f c9 00 54 40
       1.3483113 3.312548

running_var f4 [6]
000000 ec e2 84 3a 30 f0 2d 3a 2d 56 8a 3a ae 4f 70 3a
       0.0010138429 0.0006635217 0.0010554247 0.00091671466
000010 73 a3 13 3f ae 3e 31 41
       0.5767128 11.077803

weight f4 [200, 23]
000000 58 3a 07 bd f3 1b 79 3c fa e3 d6 bc 34 ca a1 3b
       -0.033014625 0.0152044175 -0.026231755 0.0049374346
000010 54 3f 0c 3e 41 95 01 3d 6f d9 67 bb af f4 23 bd
       0.13696033 0.03163648 -0.0035377403 -0.04002827
000020 b1 a4 94 3b 05 44 00 3d 7f ab 89 bb 27 cc cb 3c
       0.0045362343 0.03131487 -0.004201352 0.02487762
000030 a2 19 a9 3d 29 6e 83 bd b7 fc 24 be 17 40 20 bc
       0.08256842 -0.06417496 -0.16112028 -0.009780905
000040 b4 20 b8 bd e9 70 4e 3e 5e e8 3e 3e 62 45 e6 3d
       -0.089906126 0.2016026 0.18643329 0.112437025
000050 b7 43 b0 be f4 a1 10 be 8e 41 e9 be 40 af bb 3c
       -0.34426662 -0.1412428 -0.45557827 0.022910714
000060 72 fb a2 3d 16 b6 cb bd 21 4b 0e 3e e6 71 a0 bb
       0.07958116 -0.099468395 0.13895847 -0.0048963903
000070 21 10 1e 3e b7 bf a2 3d 32 7f 92 3d 78 1e c4 bd
       0.1543584 0.07946723 0.07153167 -0.09576124
000080 18 32 6b bd 6d 9d 4b 3d 1b 8d 44 be 72 5d 85 bd
       -0.05742082 0.04971068 -0.19194452 -0.06511964
000090 54 f3 29 be 26 88 1d be ff 27 ac bd 75 41 15 be
       -0.16596729 -0.15383968 -0.08406066 -0.14575751
0000a0 d7 dc a4 bd e9 30 76 3d 46 4b b2 bd d4 64 99 bc
       -0.08049934 0.060105238 -0.087057635 -0.018724836
0000b0 18 be d2 3d cf ad b7 3e 5c b5 22 3b 38 4b 5f bd
       0.10290164 0.35874793 0.0024827337 -0.054515094
0000c0 23 14 50 ba 58 6a b8 bc 3a b5 4c bd 38 e5 90 39
       -0.0007937571 -0.022511646 -0.04997752 0.00027636602
0000d0 4e a7 86 bc 5f 88 8b bc 6c 6e d9 3c 47 f0 e1 3c
       -0.016437199 -0.0170328 0.026541911 0.027580393
0000e0 66 40 64 3b 34 97 c7 bd dd 0b 08 be 64 f2 fe bc
       0.0034828424 -0.097456366 -0.13285775 -0.03112144
0000f0 bd 10 b6 3c e2 46 88 3c 3d 8d 8a bb bc 6f 45 3c
       0.022224778 0.016635362 -0.0042282627 0.012050565
000100 41 18 99 bd f0 e0 77 3c fa f4 34 bd b4 ac 28 bd
       -0.07475329 0.015129313 -0.04417894 -0.041180328
000110 7c b8 b6 3e b4 18 8c 3d a8 9d 0a be 39 d3 e9 bd
       0.35687625 0.06840649 -0.13536704 -0.11417241
000120 8e 1a 43 3e 5d 42 93 3c c7 ec 29 be 85 24 cd bc
       0.19053099 0.01797598 -0.1659423 -0.025041828
000130 de 73 76 bd c7 cf 08 be af 6a 55 3e c1 96 a9 bd
       -0.060169093 -0.13360511 0.20841478 -0.08280707
000140 c4 d9 6e 3e be 48 93 be 20 4d 03 be 3c 98 57 3e
       0.23325258 -0.28766435 -0.1282239 0.21054167
000150 4e cb 9d 3c 06 ac 54 3d d9 15 29 3e 86 d1 4a bc
       0.019261982 0.051921867 0.1651224 -0.012379056
000160 63 85 2f be 6d 76 ff bd 19 1b 4b 3d 06 1f de be
       -0.17140727 -0.1247376 0.04958639 -0.43383044
000170 54 1a 26 bb 44 7c 2d bb 31 a2 21 ba 76 b6 1d bc
       -0.0025345283 -0.0026471773 -0.0006165831 -0.009626022
000180 7e 99 9c 3c 05 54 fd bb 00 3d a8 b9 f8 2a 83 3a
       0.01911616 -0.007730963 -0.00032088906 0.0010007313
000190 6a 48 c6 3c 72 30 c0 bc 04 2f 42 bb 4d d0 75 bb
       0.024204452 -0.0234606 -0.0029630074 -0.003750819
0001a0 dc 9d 04 bd bb e5 1a bb 3d 3c 03 bc ca 14 58 3c
       -0.03237711 -0.0023635465 -0.008009967 0.01318855
0001b0 88 16 22 3a bc 7e ef 3e 89 83 99 be 1e d9 d2 be
       0.0006183167 0.46776378 -0.29983166 -0.41181272
0001c0 2f a1 99 3e 6b 62 e6 bc e9 d3 95 3d 49 42 9e bc
       0.30005786 -0.028123101 0.07315809 -0.019318717
0001d0 d1 ff 03 3e e7 a8 74 3e f7 71 ca bd 0f 0c f2 3d
       0.12890555 0.23892556 -0.09885018 0.11818706
0001e0 4b 94 a1 bc 57 d6 04 3d 71 08 3e 3d 56 34 eb 3d
       -0.019724032 0.032430973 0.04639477 0.11484592
0001f0 2f b9 c2 be 77 80 c7 bd 88 61 32 be 9e b6 55 bd
       -0.3803191 -0.097412996 -0.17420018 -0.05217611
000200 d6 58 e1 bc ff 67 7e bd ea a4 b9 bd e5 37 07 3e
       -0.02750818 -0.062110897 -0.09064658 0.13204916
000210 c9 4d 90 be d4 15 b3 be c4 bc c9 be 77 44 ae 3d
       -0.28184345 -0.3497759 -0.3940183 0.085091524
000220 22 ad 2f bd a1 a3 da bc e9 01 25 bb de d9 4b 3c
       -0.04288972 -0.026689352 -0.002517814 0.01244208
000230 78 2d f4 3c 73 05 94 3c 55 4b ad bc 0b e3 05 bc
       0.029806837 0.018069005 -0.021154085 -0.008171807
000240 ad f0 1c bc 38 17 39 3c c2 53 35 3c 35 b9 44 3c
       -0.009578866 0.01129704 0.011067333 0.012007047
000250 7c 6d c3 3c a1 4a 52 bc 60 96 47 3d e2 5e 70 bc
       0.023855917 -0.012835176 0.048727393 -0.014671059
000260 06 79 91 3d ac 44 b2 bc c2 17 b4 3c 8b 35 57 bd
       0.071031615 -0.02176126 0.021983985 -0.052541297
000270 50 60 98 bd 40 0a 76 bc de 79 03 3d ba f4 ce 3c
       -0.07440245 -0.015017092 0.032098643 0.02526318
000280 17 a5 1e bf 18 91 17 3c 88 d8 31 3c c2 18 61 bb
       -0.6197066 0.009250902 0.010854848 -0.0034347032
000290 b6 3e a0 3c 65 ce 8d 3c b2 e8 88 3b 16 96 8e 3b
       0.019561153 0.01731033 0.00417813 0.0043513877
0002a0 48 27 e7 39 a8 d0 6a 3c cc 37 33 3c 7b 82 33 bc
       0.0004408902 0.014331974 0.010938596 -0.010956402
0002b0 a6 40 d6 b9 78 0d 54 bd ab 43 9d 3c 70 48 23 3c
       -0.00040865428 -0.051770657 0.019197306 0.009966001
0002c0 a8 c3 c8 ba a7 e3 77 bc 4b 76 0b 3f 96 7a a8 be
       -0.0015317099 -0.01512996 0.54477376 -0.32906026
0002d0 00 7b f7 be 44 67 c1 3e c2 0e 17 bd 49 88 93 3d
       -0.4833603 0.37774098 -0.03687931 0.07203729
0002e0 1e 78 5b be b3 f1 05 3e 24 43 5a be e8 d2 eb bd
       -0.2143254 0.13080482 -0.21314675 -0.115148365
0002f0 57 94 f0 3e 91 84 59 3d 95 41 41 bd d8 ce aa ba
       0.46988174 0.05310494 -0.047181685 -0.0013031615
000300 48 ab 99 bb 06 e9 9e bd 53 d1 db bd 4b 88 5d 3c
       -0.004689608 -0.077592894 -0.10733285 0.013521264
000310 fa 26 15 3f 44 6d 9d bd ac b7 21 be 79 6c 8f 3e
       0.582626 -0.076868564 -0.15792722 0.28012446
000320 ec 76 b7 3e 3f 3e 7f be 6e 74 a7 be 87 54 ae 3d
       0.35832918 -0.24926089 -0.32706016 0.08512216
000330 93 39 45 3d df 64 e9 3d 35 c7 a3 be 2c 76 60 3d
       0.04815061 0.11396193 -0.3198792 0.054800197
000340 dd 90 b5 3d 81 0a 64 3d 5e 48 d9 3c fa 4f ea bd
       0.08865521 0.05567408 0.026523765 -0.114410356
000350 af d5 b0 bb 15 2e 60 3c 8f f3 a9 3c f5 43 99 3d
       -0.005396567 0.013682862 0.02074602 0.07483665
000360 38 4f 68 bc 6d ca 28 3e a0 25 89 3d 6c 34 31 be
       -0.0141790435 0.1648347 0.066966295 -0.17305154
000370 12 62 48 bd 00 5d fc 3d 0a c2 72 3d af 04 e3 3c
       -0.048921652 0.12322426 0.05926708 0.027712194
000380 f7 49 03 3e 4a b2 c2 bd cf bd e6 bc 85 4d 00 bd
       0.12821184 -0.09506662 -0.02816668 -0.03132393
000390 17 9f 5d 3d 1e e6 ae 3e 2e 85 9a 3d ea 83 fe 3d
       0.054106798 0.3415994 0.07544933 0.12427504
0003a0 4e 6b 8c 3d 71 13 9d bd ed 95 f1 bd 3e e9 b8 bd
       0.06856404 -0.07669724 -0.11796174 -0.090288624
0003b0 dd 5c 25 be fe 02 fb 3d ab eb 9d 3d 36 61 6b bd
       -0.16148706 0.1225643 0.07710966 -0.057465754
0003c0 09 82 58 bd 9b 75 54 3c ae d0 e6 be d8 78 66 3d
       -0.052858386 0.012967492 -0.45081085 0.05626759
0003d0 d3 89 ab 3e b7 ea 98 3d 7d 8a fb 3d b6 ca a4 bd
       0.3350359 0.07466643 0.12282274 -0.080464765
0003e0 66 8f e6 3e 9f 17 53 3e 2e 53 a6 bd 5d df 2c 3e
       0.4503128 0.2061448 -0.08121334 0.16882081
0003f0 9d 95 83 3e cc a4 da bb 9e 16 30 bd d6 68 92 bc
       0.25700083 -0.0066724773 -0.04299032 -0.017872255

bias f4 [200]
000000 1b 1b b9 3e 96 13 d6 be ea 18 c5 3e 1f 7a 56 be
       0.36153492 -0.41811818 0.3849557 -0.20945023
000010 e1 b4 d7 3b 79 46 fd 3e 38 80 f7 be b0 39 21 bb
       0.0065828417 0.4946783 -0.4834001 -0.0024601035
000020 40 57 8d 3e 1f 65 01 be c7 25 35 be c1 a6 a1 be
       0.2760563 -0.12636231 -0.17690192 -0.31572536
000030 48 80 29 bf 31 15 be 3a ad a5 98 3e 50 cc 88 3f
       -0.66211367 0.0014502165 0.298139 1.0687351
000040 42 d1 04 bf ef 52 6f bc 63 1a f2 3e 63 71 b7 be
       -0.518818 -0.014607175 0.47285756 -0.35828695
000050 9f e7 43 3f f5 c2 6a 3f 66 0d ba bd 71 d0 d4 be
       0.765253 0.9170373 -0.09084587 -0.41565278
000060 51 c4 2a bf e4 e0 3c 3f 11 ed 40 3f d1 21 d3 be
       -0.66705805 0.73780656 0.75361735 -0.41236737
000070 30 b1 cc be f3 5a 4f 3e 7f 21 bc bf e8 df bd 3d
       -0.39978933 0.20249538 -1.4697722 0.09271222
000080 9d 14 95 be 2d c6 cd be 2c 73 f7 3e 01 80 ed bd
       -0.2911729 -0.4019026 0.48330057 -0.115966804
000090 b5 3f 1c 3f a1 2f 8a bd b0 94 9f be 55 00 84 be
       0.6103471 -0.06747366 -0.31168127 -0.25781503
0000a0 21 66 a1 bf 57 a8 04 3f 4f ee d4 3d e3 86 dd 3e
       -1.2609292 0.51819366 0.10397016 0.43266973
0000b0 f8 fe 11 3f 9b 83 d4 be 32 31 37 be 9c 38 ee be
       0.57029676 -0.41506657 -0.1788986 -0.46527565
0000c0 7a a9 fe be cc 1a 96 3f 15 9d ef bd 3a ef fc 3e
       -0.49738675 1.1726928 -0.11699883 0.49401265
0000d0 ac 07 3b be 59 b9 32 3f 1f 1b f7 3e 41 c8 1c bf
       -0.18264645 0.6981407 0.4826288 -0.61243063
0000e0 66 f1 69 bf fe ee 62 bf 49 04 35 be 12 61 7d 3e
       -0.9138397 -0.88645923 -0.17677416 0.2474406
0000f0 fc 9b 88 3f 2c ae 3c bf 31 0b 76 bf 8c 45 ac be
       1.0672603 -0.73703265 -0.96110827 -0.3364681
000100 bc ff 8f 3f b0 2f b3 bf b6 45 1a 3f cd d7 04 3d
       1.1249919 -1.3998928 0.6026262 0.032432366
000110 a7 6d 8c be 35 64 e9 be 00 0d 70 3e 78 07 bf bf
       -0.27427408 -0.45584264 0.23442459 -1.4924154
000120 e2 2d 31 bf e0 1a 01 3f 67 93 bd be e4 ec de 3d
       -0.69210637 0.50431633 -0.37026522 0.10885027
000130 82 9e a1 bd 2b 9b 66 be 96 35 20 3f c2 c5 c0 3e
       -0.07891561 -0.2252013 0.62581766 0.37650877
000140 09 8c f6 3e 3a aa ca be 29 32 03 3f a4 8c 18 bd
       0.48153713 -0.39582998 0.51248413 -0.0372435
000150 c6 2e 64 3f a3 38 d1 bd 67 8d 5e 3e db 3e fa be
       0.8913387 -0.10215881 0.21733628 -0.4887608
000160 b2 9b ef be 3c 97 3d 3f ae 36 8f bf d4 e4 5a be
       -0.46798474 0.7405889 -1.1188562 -0.21376354
000170 5d 5d 2a be cf 80 22 be 44 c7 3c 3f e3 e4 fb bd
       -0.16637178 -0.15869449 0.73741555 -0.12299516
000180 27 ff 98 3f 55 1a 01 3e 04 96 0e 3f d9 ea 14 3d
       1.1952866 0.12607701 0.55697656 0.03635678
000190 a9 a5 31 bc e8 4f 56 bd 68 d9 ec 3e 6f 51 6f bf
       -0.010842719 -0.0523223 0.46259618 -0.9348363
0001a0 0c 11 bd 3e 28 2f 12 3e a1 76 a4 be 14 93 08 3f
       0.36927068 0.14275801 -0.32121757 0.53349423
0001b0 d1 8a 7d 3d 86 29 ae 3d 0c b5 8f 3c 0c cb ca 3d
       0.061899964 0.08504014 0.017542385 0.09902009
0001c0 fd f6 4e 3f 8e 31 3f 3f bb 54 67 3f 9a c8 05 3f
       0.80845624 0.7468499 0.90363663 0.5225922
0001d0 d4 1c b0 bd 20 d1 03 3f 1d ae f4 3d c0 8c d1 be
       -0.085992485 0.51490974 0.11947272 -0.40927696
0001e0 60 53 34 bf 9f 31 d3 bf ce 36 b5 be 20 f3 8a 3e
       -0.7043972 -1.6499518 -0.35393375 0.27138615
0001f0 ad c2 c3 3e 73 83 e6 be 5a 42 af be e3 cb 6f 3f
       0.38234463 -0.45022163 -0.3423031 0.9367048
000200 ba f1 06 bf fe 29 50 3f 8f dc 6b 3e a6 51 74 3a
       -0.52712595 0.81314075 0.23033355 0.0009320028
000210 9e f6 95 be 17 84 43 3e 78 db a2 3d 31 77 55 3f
       -0.29289716 0.19093357 0.079520166 0.83384997
000220 f7 1b 0f bf bb 56 58 be 88 9e 50 3f b8 9c 61 be
       -0.55902046 -0.21126835 0.814919 -0.2203244
000230 ca 2f 1c 3f cf de 4e 3e 4f 03 24 be 10 1e 1e 3e
       0.6101042 0.20202182 -0.16016887 0.15441155
000240 06 0a 94 be 86 7b 66 3e 78 de 0e 3f e8 22 a3 ba
       -0.28913897 0.22508058 0.5580821 -0.0012446316
000250 80 2e ad bc fe 02 69 be e4 fa 02 3e 7a ba 8b 3e
       -0.021140337 -0.22755048 0.1279102 0.27290708
000260 d1 90 16 bf 96 45 00 3e 45 9e 8e 3f a6 40 9e be
       -0.5881472 0.12526545 1.114205 -0.30908698
000270 11 ef 1b be 1d a6 49 3f 02 f5 e7 3e 70 10 f8 3e
       -0.15227915 0.78769094 0.45304114 0.4845004
000280 69 87 11 3d 92 a6 39 3f 8d b2 ad bd 0c 4e 32 3f
       0.035529528 0.7251979 -0.084813215 0.6965034
000290 07 01 bc 3e ca bc 8b bf 4c 8a 1f 3f f8 75 87 bf
       0.36719534 -1.0916989 0.623204 -1.0582876
0002a0 f4 86 a0 3e bf da bd bf 44 e2 97 be d6 ef c7 3d
       0.3135296 -1.4832381 -0.29664814 0.09762542
0002b0 be fc 15 3f 32 91 91 bf 24 46 65 3e 4a 41 6e 3e
       0.5858878 -1.1372435 0.22390038 0.23267093
0002c0 60 a8 c3 bd bd cc 43 3f 27 4d 6a bd 2f fe 58 be
       -0.09553599 0.7648428 -0.057202484 -0.21190713
0002d0 8d a2 2c bf fb 7d ed be 5e 0b ed bc 0a 57 fc 3e
       -0.6743553 -0.46385178 -0.028936084 0.49285156
0002e0 af 69 e8 3e 8d 0e 38 bf 89 19 40 3f 44 34 53 3f
       0.4539313 -0.718972 0.75038964 0.82501626
0002f0 c2 58 1a be ca a1 41 bf 03 02 24 bf 3e e8 f5 3e
       -0.15072921 -0.75637496 -0.6406557 0.4802875
000300 33 09 2a be 85 7e f2 be d6 4e 4a 3f 6a f3 68 3f
       -0.16605072 -0.47362152 0.79026544 0.9099642
000310 14 25 15 3f 2a 2d 09 3f 2e d6 30 3f cb 12 84 3f
       0.582597 0.5358454 0.6907681 1.0318235

weight f4 [200]
000000 ad f0 52 3f 1e 91 59 3f e3 7b 4e 3f f4 37 7e 3f
       0.8239849 0.84987056 0.80657786 0.9930413
000010 f1 98 98 3f ad b0 57 3f 4e a9 3f 3f ee 2b 98 3f
       1.1921674 0.8425396 0.74867713 1.1888406
000020 07 58 3a 3f c1 39 73 3f 98 b7 44 3f b9 8e 54 3f
       0.7279057 0.9501 0.7684264 0.8303028
000030 28 37 2e 3f 07 5c 99 3f 47 55 73 3f eb 66 7c 3f
       0.6805291 1.198121 0.95052 0.9859454
000040 71 e7 a0 3f d7 be 5c 3f d2 e2 67 3f 22 5b 1b 3f
       1.257063 0.862287 0.90580475 0.6068593
000050 15 1d 43 3f 8d 86 64 3f 6c ec 80 3f 88 32 5d 3f
       0.7621625 0.8926781 1.007215 0.8640523
000060 4e 85 62 3f fc 63 65 3f 6b 5b 79 3f 5b fd 86 3f
       0.88484657 0.8960569 0.9740512 1.0546068
000070 0e 90 8b 3f 48 7e 55 3f 9b 49 8e 3f a3 f0 87 3f
       1.0903337 0.83395815 1.1116213 1.0620311
000080 87 72 68 3f 8d 60 48 3f 9d 0c 54 3f 3f 5e 93 3f
       0.90799755 0.78272325 0.82831746 1.1513137
000090 2b af 5e 3f 44 ad 59 3f df a1 65 3f 34 44 86 3f
       0.86986035 0.8503001 0.8970012 1.0489564
0000a0 aa 15 bb 3f 03 5c 77 3f 06 d7 24 3f dc b4 74 3f
       1.4615986 0.96624774 0.643906 0.9558847
0000b0 56 1a 7c 3f 4b ad 89 3f ee f5 4b 3f 8f 18 46 3f
       0.98477685 1.075601 0.79672134 0.77381223
0000c0 3f bb 45 3f 93 f2 57 3f e6 82 9d 3f ee 19 59 3f
       0.7723884 0.84354514 1.2305572 0.8480519
0000d0 e6 0a 62 3f 6f c6 80 3f 4f a7 78 3f 65 fa 6a 3f
       0.8829788 1.0060557 0.9713029 0.9178832
0000e0 59 f1 9c 3f 4c b8 52 3f d8 c7 93 3f f6 d3 73 3f
       1.2261153 0.82312465 1.1545362 0.952453
0000f0 7e e6 75 3f 0c 99 5b 3f 47 8f 79 3f a7 55 58 3f
       0.9605483 0.85780406 0.9748425 0.84505695
000100 1b 20 45 3f ca 64 7a 3f 50 ed 81 3f b3 0d 5e 3f
       0.77002114 0.9781004 1.0150547 0.86739653
000110 bc 58 46 3f fd b6 73 3f a7 ee 50 3f 95 cd 04 40
       0.7747915 0.9520109 0.81614155 2.0750477
000120 1d 00 51 3f ab bb 80 3f 44 0b 8f 3f 4b 39 61 3f
       0.816408 1.0057272 1.1175313 0.8797805
000130 18 c9 88 3f c0 8a 5a 3f 8d 1f 74 3f 5c 73 6b 3f
       1.0686369 0.85367966 0.9536064 0.919729
000140 d8 f5 75 3f ca 00 5e 3f a9 b8 29 3f 5c 25 4e 3f
       0.9607825 0.86719954 0.66297394 0.80525756
000150 1c 2a 28 3f 36 44 95 3f 4c 75 5f 3f 7f 75 a1 3f
       0.65689254 1.1661441 0.87288356 1.2613982
000160 d2 4e 6d 3f f2 84 73 3f 89 ee 62 3f 62 8d 67 3f
       0.92698395 0.95124733 0.88645226 0.9045011
000170 ef a5 4e 3f a3 8b 69 3f bc 51 63 3f a0 3e 4c 3f
       0.80721945 0.91228694 0.8879659 0.7978306
000180 9f d0 44 3f 33 e8 6c 3f 11 6c 4d 3f a8 95 57 3f
       0.7688083 0.9254181 0.8024302 0.8421273
000190 ff 8d 7a 3f fc f5 69 3f ac 24 80 3f ea 69 94 3f
       0.9787292 0.9139097 1.0011191 1.1594822
0001a0 fa 96 8b 3f 8e ba 6c 3f f7 6a 8a 3f 0e 3b 4d 3f
       1.0905449 0.9247216 1.0813893 0.80168235
0001b0 04 ad 65 3f 5c ef 75 3f ca c3 5d 3f df 41 64 3f
       0.89717126 0.9606836 0.86626875 0.8916301
0001c0 69 49 88 3f 23 40 65 3f df 13 40 3f 79 8f 8b 3f
       1.0647403 0.8955099 0.7503032 1.0903159
0001d0 75 b5 84 3f 44 c3 67 3f c6 6e 4c 3f d9 20 89 3f
       1.0367876 0.90532327 0.79856527 1.0713149
0001e0 e2 ea a1 3f 50 4b 87 3f f5 35 5c 3f 5b 75 43 3f
       1.2649806 1.0569859 0.8601983 0.76350945
0001f0 2d 1f 71 3f d6 00 8a 3f 8a 25 9c 3f df d1 7a 3f
       0.94188195 1.0781505 1.2198956 0.9797649
000200 fc 1f 6c 3f 73 cc 81 3f 90 bf 5f 3f bf f0 88 3f
       0.92236304 1.0140518 0.87401676 1.069847
000210 f6 1e 2d 3f e4 7e 6a 3f af b6 6c 3f 2b 99 2d 3f
       0.6762537 0.9159987 0.92466253 0.6781184
000220 92 2d 7f 3f c7 bc 51 3f 11 c9 4d 3f 7d db 5f 3f
       0.9967891 0.81928676 0.8038493 0.8744429
000230 c4 b8 6f 3f 4d 99 7f 3f 26 02 4f 3f 83 ff 5b 3f
       0.93641305 0.99843293 0.80862653 0.85936755
000240 fc 4b 81 3f 3e eb 63 3f 3a a0 78 3f 80 58 41 3f
       1.0101314 0.89030826 0.97119486 0.75525665
000250 58 ac 43 3f 7f 36 3d 3f d5 da 6d 3f 6c 95 52 3f
       0.7643485 0.7391128 0.92912036 0.8225925
000260 5a e9 9d 3f 30 2c 55 3f 43 fe 43 3f d7 fc 5a 3f
       1.2336838 0.8327055 0.7655985 0.85542053
000270 90 eb 66 3f e0 33 46 3f d4 f4 4a 3f 79 df 78 3f
       0.9020319 0.77422905 0.7927983 0.9721599
000280 8c 17 87 3f f8 98 2f 3f e2 a8 89 3f f8 d4 81 3f
       1.0554061 0.68592787 1.0754664 1.0143118
000290 a7 48 4d 3f f7 3e 94 3f cc 9f 82 3f 05 e4 4f 3f
       0.80188984 1.1581715 1.0205016 0.81207305
0002a0 a2 65 29 3f 45 c6 74 3f a2 18 95 3f 01 bb 4e 3f
       0.66170704 0.95615035 1.1648142 0.80754095
0002b0 0d 29 86 3f 3b b6 78 3f a6 db 6e 3f 27 6d 71 3f
       1.0481278 0.9715306 0.93303907 0.9430718
0002c0 6b 9c 91 3f 26 39 38 3f af 4e 86 3f 36 fc 47 3f
       1.137586 0.719622 1.0492762 0.7811922
0002d0 b1 c7 91 3f 54 f0 64 3f e6 aa 48 3f 8c 42 5d 3f
       1.1389066 0.8942921 0.7838577 0.8642967
0002e0 33 74 57 3f ca f7 76 3f 0c 56 5c 3f 48 bc 75 3f
       0.8416168 0.96471846 0.860688 0.9599042
0002f0 3b 0a 3c 3f 00 eb ac 3f 61 6b 6a 3f 6e 2c 82 3f
       0.7345311 1.3509216 0.915701 1.0169809
000300 e7 ed 65 3f 00 59 81 3f 34 cf 87 3f f2 db 66 3f
       0.89816135 1.0105286 1.0610108 0.9017936
000310 f7 fd 4e 3f 4f cd 56 3f b9 f9 70 3f 74 16 52 3f
       0.8085627 0.83907026 0.94131047 0.8206551

bias f4 [200]
000000 b5 23 01 3f 6a 40 0b be e5 72 8c bc b2 91 92 3e
       0.5044511 -0.13598791 -0.01714463 0.28626782
000010 ed c6 45 3e cd 59 89 3e db ad 99 3e 17 19 6a 3e
       0.19314165 0.26826325 0.30015454 0.22861134
000020 f5 23 8b 3e 7b 86 6a 3d 4b f3 16 be 00 51 75 3b
       0.2717587 0.057257157 -0.14741246 0.0037432313
000030 4e 77 5b be 3d 21 5e 3e a5 44 bb 3e 79 ec 10 3d
       -0.2143223 0.21692367 0.3657581 0.035381768
000040 df 09 94 3e 46 39 04 3f da 40 d7 3d 5e 40 df 3e
       0.2891378 0.5164989 0.10510416 0.43603796
000050 68 06 0e 3f 70 59 00 3f a6 64 66 3e 0b 86 72 bd
       0.55478525 0.5013647 0.22499332 -0.059209865
000060 dc 3c bc 3a 71 75 1c 3e bf 5b 68 3e de 38 f8 3d
       0.0014361399 0.15279175 0.22691248 0.121202216
000070 90 de 40 3d 67 a0 4b bd 95 8f 20 bd 72 af db 3e
       0.047087252 -0.04971352 -0.03919943 0.42907292
000080 fc 68 25 3e 48 f6 55 be 36 19 ce 3e 73 ff 87 3e
       0.1615333 -0.2089473 0.4025361 0.2656208
000090 0b 3d cc 3e ec 71 88 3c 21 d8 4f 3d 9a 33 a6 3d
       0.39890322 0.016655885 0.050743226 0.08115311
0000a0 85 91 d8 bd d7 6b 93 3c 45 24 2c be 95 7c b7 bd
       -0.10574631 0.017995758 -0.1681071 -0.08959309
0000b0 e0 c5 53 3e 9e 47 3c 3e 0f f0 48 3d ff c5 47 3e
       0.20680952 0.18386695 0.049057063 0.19509123
0000c0 83 ad 16 3e b1 ff c2 3e 4e 52 85 3e f3 26 5b 3e
       0.14714627 0.38085702 0.26039356 0.21401577
0000d0 da 22 89 3d d9 98 16 bd 79 d9 81 3e b4 1f ca 3d
       0.066961005 -0.03676686 0.2536123 0.09869328
0000e0 ef 86 bc 3d 0a 73 bc 3e 9d 01 83 3e 9b 94 4a be
       0.09205424 0.36806518 0.25587168 -0.19783251
0000f0 bd c4 18 3e 75 88 d4 3d b5 53 58 be 1a eb ce 3d
       0.149188 0.103775896 -0.21125682 0.10103436
000100 03 25 a5 3e 48 4e ee bc 38 10 8a 3e ab 05 94 bd
       0.322548 -0.029090062 0.269655 -0.072276436
000110 8e 46 bd bd e7 9b e3 3d ce 4a 90 3c fe 5a 8f bd
       -0.09241973 0.111137204 0.017613795 -0.06999777
000120 dd bf e3 3d 2b f8 d6 bc 02 59 c2 3e 59 eb 2b be
       0.111205794 -0.026241383 0.37958533 -0.16788997
000130 2f bc 5d 3e 6f 84 2e 3c 4b 3c 4f 3d 63 be 0b 3e
       0.21653818 0.010651692 0.05059461 0.13646846
000140 ba 46 48 3e 72 73 0b bd c4 bf 16 3f ab ac 17 bd
       0.1955823 -0.034045644 0.5888636 -0.037029903
000150 0e 00 a5 3e a3 ee 82 3e fe d6 ef 3e bc 79 de 3e
       0.32226604 0.2557269 0.46843714 0.4345225
000160 a3 05 cf 3d d1 34 0a 3e ba 43 8c bd 09 3d 08 bd
       0.10108497 0.1349671 -0.06848855 -0.033261333
000170 70 8c 01 bd 4a 1d 9e bc db 24 2c 3e 0b 51 e3 bc
       -0.031628072 -0.019301075 0.16810934 -0.027748605
000180 9b e3 e7 3e aa ac 95 3c 2e 3c 03 3f af d9 18 3c
       0.45290837 0.01827081 0.512637 0.009329244
000190 c8 50 18 be 30 65 04 be dd e5 85 3e 13 d4 9d bc
       -0.14874566 -0.12929225 0.26151934 -0.019266164
0001a0 24 b5 42 3e 7a e4 01 3f 81 2b db 3e 46 18 6f be
       0.19014412 0.5073925 0.42806628 -0.23349103
0001b0 05 47 35 bd e5 83 90 bd 93 59 91 3e 4e 8e 07 3d
       -0.044257183 -0.07056407 0.28388652 0.033094697
0001c0 f2 61 d2 3d 41 40 d4 3e 32 95 29 3f fd 90 29 3f
       0.10272588 0.41455272 0.6624328 0.6623686
0001d0 0c d4 0d 3e 50 cb e4 3e 37 95 ee bd 49 2d 50 3e
       0.1385042 0.44686365 -0.11649554 0.20329775
0001e0 ea 95 ce 3d 2f c1 9f bc d8 2e af 3b dc 95 7e be
       0.100871876 -0.019501297 0.0053461604 -0.24861854
0001f0 fc 86 9e 3d 1d c6 7c 3e 26 76 88 3e d9 2b dd 3d
       0.0774059 0.24684949 0.2665264 0.10799379
000200 3f 1c fb bd 3a 7e b9 3e fb 88 0d be 66 82 53 3e
       -0.12261247 0.36229116 -0.13821785 0.20655212
000210 7e 3d 1a bd d9 d7 62 bd ad 2c c2 3e f6 96 f0 3e
       -0.0376563 -0.05538163 0.3792471 0.46990174
000220 f8 2a e4 3d a3 f4 31 3e 51 d1 fb 3e f3 8a 90 3d
       0.11141008 0.17378478 0.49183133 0.070577525
000230 70 85 74 3e 16 c2 b3 3e 55 af fd bd 59 6b 83 3e
       0.23879027 0.35109013 -0.123869576 0.25667837
000240 ef f4 1b 3e 88 db 71 3c fc 62 4e 3e 51 f5 39 bc
       0.15230154 0.014761813 0.20154947 -0.011349992
000250 fd 7c 91 bd 34 dc 27 be e0 f4 4a be 04 cc d8 bd
       -0.07103918 -0.16392595 -0.19819975 -0.10585788
000260 e1 ba 8e 3c ab 74 90 3e 0e 86 bd 3e ab a4 89 3c
       0.017423095 0.2821401 0.37016338 0.016802153
000270 51 0f 92 3c 20 d2 83 3e 22 c6 47 3e ce 47 47 3e
       0.017829569 0.2574625 0.19509175 0.19460985
000280 51 dc 1b 3e 14 3c 33 3f 33 39 82 3e 49 a9 d8 3d
       0.15220763 0.70013547 0.25434265 0.105791636
000290 21 f6 bd 3e 07 7b 2c bb 8a b8 b9 3e 2b 28 0f be
       0.37101844 -0.0026318447 0.36273605 -0.13980167
0002a0 9c 59 f7 3e 21 89 64 3c 72 59 c6 3e 45 0e 42 be
       0.48310554 0.01394871 0.38740116 -0.18950756
0002b0 fa 1f 99 3e 2c 1a 98 bc 03 d6 0c 3e 9b 96 ac bd
       0.2990721 -0.018567167 0.13753514 -0.08427163
0002c0 b3 81 82 3e 00 d0 13 3f 65 d8 e6 3e f1 d3 a6 bc
       0.25489578 0.5773926 0.4508697 -0.020364733
0002d0 0d f8 93 3d 6d 2e 7e 3e 86 ff 8c 3e 3c 9a c7 3e
       0.07225046 0.24822398 0.275387 0.3898486
0002e0 7f 70 b1 3c 06 92 4b 3e 55 91 b7 3e dc 0a 1d 3e
       0.021660088 0.19879922 0.35853067 0.15336174
0002f0 0d 0e a8 3e 82 f5 bd 3d 09 c9 67 3d f4 89 95 3e
       0.3282322 0.092753425 0.056588206 0.29206812
000300 00 4f 91 3d f0 31 0e 3d 04 e4 bf 3e 83 85 8f 3e
       0.07095146 0.034715593 0.3747865 0.2803155
000310 62 b8 0a 3f bc 5c b0 3e 53 02 85 3d 56 09 3b 3e
       0.54187596 0.3444575 0.06494584 0.1826528

running_mean f4 [200]
000000 91 f1 29 3f 4a f9 45 3d 39 50 ac 3e 0c cc 27 3e
       0.66384226 0.048333444 0.33654955 0.16386431
000010 43 33 16 3e f1 35 6b 3f d3 29 09 3e b2 8e 2b 3e
       0.14667992 0.91879183 0.13394861 0.16753653
000020 5e d9 1e 3f aa de cb 3d a9 e3 df 3d f8 43 db 3d
       0.62050426 0.09954579 0.109320946 0.107063234
000030 a1 c1 97 3d 8c 0c 24 3e 00 86 b1 3e b8 0d a0 3f
       0.07409979 0.16020411 0.34672546 1.2504187
000040 0e 06 12 3e 0f 01 b8 3e 58 7d bd 3e 02 57 55 3d
       0.14260122 0.35938308 0.37009692 0.05208493
000050 b8 d0 88 3f 31 48 8a 3f ea dc 4b 3e b7 98 e7 3d
       1.0688696 1.0803281 0.19908491 0.11308425
000060 4b 0c 90 3d ab bf 79 3f f1 84 77 3f 8c 65 a1 3d
       0.07033595 0.9755809 0.9668723 0.07880697
000070 28 5f f1 3d d5 6f 99 3e 77 82 85 3b cd b1 f4 3e
       0.11785728 0.29968134 0.0040743905 0.477919
000080 30 8a 88 3e 96 1b c1 3d c2 fa 3b 3f 84 1d 46 3e
       0.2666793 0.0942909 0.734295 0.19347197
000090 8f bc 54 3f 6b d5 29 3e 59 96 08 3e 82 05 4b 3d
       0.8310022 0.16585319 0.13338603 0.0495658
0000a0 34 bf a9 3a e2 aa 3e 3f 98 b4 ce 3e e1 14 a0 3e
       0.001295066 0.74479496 0.40372157 0.3126593
0000b0 06 66 da 3e 7d c3 2c 3e 59 85 10 3e 47 67 06 3e
       0.42655963 0.16871448 0.14113368 0.13125335
0000c0 05 d2 fe 3d b4 49 ae 3f 16 b9 3a 3e 37 0d 2b 3f
       0.12442402 1.3616242 0.18234667 0.6681704
0000d0 85 db e6 3d e3 18 77 3f 0f 38 be 3e 33 fb a1 3d
       0.11272339 0.9652235 0.37152144 0.079092406
0000e0 a0 c5 f6 3c f4 f3 4a 3d bd f5 2d 3e dc 52 20 3f
       0.030123532 0.049549058 0.16988273 0.62626433
0000f0 7b d0 a6 3f 9b 4c c1 3d a3 e4 84 3c c8 04 6d 3e
       1.3032373 0.094384395 0.016222304 0.23146355
000100 8f 9c a1 3f 17 72 58 3c 41 58 e7 3e 08 cd 49 3e
       1.2625903 0.013210795 0.4518452 0.1970712
000110 53 e9 e5 3d 4d b5 a7 3d 72 4e 70 3e 96 74 59 3a
       0.11226144 0.08188877 0.23467425 0.0008295266
000120 b1 7b 2b 3d db 59 42 3f f4 fa fb 3d 49 7a 12 3f
       0.04186601 0.7591836 0.12303725 0.5721784
000130 b7 00 30 3e 32 52 06 3e 1e dc f3 3e bc 43 b0 3e
       0.17187773 0.13117293 0.47628874 0.34426677
000140 49 44 c5 3e 64 e1 d8 3d 86 b6 82 3f cd 61 1c 3e
       0.3852866 0.10589865 1.0211952 0.15271683
000150 93 10 9a 3f f3 2a 3d 3e 64 bc 10 3f 90 92 44 3e
       1.2036308 0.18473415 0.5653746 0.19196534
000160 56 cc 91 3d fa 98 77 3f 6c 71 ce 3c 39 cc e8 3d
       0.07119052 0.967178 0.025200568 0.113670774
000170 ff 86 3f 3e 61 70 a3 3e 6d 6f 85 3f a0 3e 34 3e
       0.1870384 0.31921676 1.042463 0.17602015
000180 4f d2 ab 3f ba 9d 5a 3e 52 7f 9c 3f d5 6e 2c 3e
       1.3423556 0.2134923 1.2226355 0.16839154
000190 95 a3 1a 3e 16 83 3a 3e 39 3e b1 3e 40 c6 bb 3b
       0.15101464 0.18214068 0.34617785 0.0057304204
0001a0 c2 c1 df 3e ea b1 f9 3e 0b a1 ce 3e bb 00 f8 3e
       0.43702513 0.4876855 0.4035724 0.48438057
0001b0 6a 63 43 3e de a4 49 3e 6e 33 d9 3e b7 81 57 3e
       0.19080892 0.19691798 0.4242205 0.21045576
0001c0 26 ae 87 3f 93 c8 46 3f 40 d8 86 3f 8f 15 13 3f
       1.0600021 0.776498 1.0534744 0.5745477
0001d0 29 a1 1c 3e 65 8d 2f 3f 12 c1 5b 3e 3a 40 f3 3d
       0.15295853 0.68575126 0.21460369 0.118774846
0001e0 83 28 75 3c f3 b3 5e 3b b4 5c e5 3d f9 27 61 3e
       0.014963272 0.003398177 0.11199322 0.21987905
0001f0 2a ad 9a 3e f2 26 31 3d ca 02 4f 3e 77 45 89 3f
       0.3021024 0.04325003 0.20215908 1.0724324
000200 28 05 5c 3d fa ca 2b 3f 3c 4f 7f 3e 67 8e 36 3e
       0.053715855 0.6710659 0.2493257 0.1782776
000210 d9 6e 14 3e 00 e9 54 3e 42 48 c1 3e 78 c5 89 3f
       0.1449541 0.20792007 0.3775044 1.0763388
000220 dc 38 7c 3d f4 62 bf 3e 3d b1 8c 3f 81 52 19 3e
       0.061577663 0.37380183 1.0991589 0.14972879
000230 7a a5 61 3f 82 52 80 3e e8 3b 0d 3e 0f 2f cf 3e
       0.8814312 0.25062948 0.13792384 0.4046559
000240 56 0b 1b 3e 0e b2 52 3e 7d 22 e7 3e 01 95 2c 3e
       0.15141043 0.20575735 0.451435 0.16853715
000250 74 6b 29 3e e0 b2 35 3e ce a4 1c 3f d9 fa 61 3e
       0.16544896 0.17744017 0.6118897 0.22068347
000260 1a 7d 71 3d 33 1f 43 3f 74 51 9e 3f c3 07 28 3e
       0.058957197 0.7621948 1.2368608 0.16409211
000270 04 e3 2c 3e b1 99 72 3f 90 5c 34 3f ac 2b c3 3e
       0.16883475 0.94765764 0.7045374 0.38119256
000280 68 45 1a 3e 1f 4c 80 3f 50 e3 43 3e 73 cd 77 3f
       0.15065539 1.002323 0.19129682 0.96797866
000290 e8 4b 9a 3f e1 04 28 3c 50 52 f5 3e 00 35 4f 3d
       1.2054415 0.0102550695 0.47914362 0.050587654
0002a0 89 e7 84 3f 57 92 a6 3b f6 fb b3 3d 22 4c 92 3e
       1.0383159 0.005083363 0.08788292 0.2857371
0002b0 6b 32 de 3e 0c 76 fb 3c f0 03 a4 3e 92 b7 12 3f
       0.4339784 0.030695938 0.32034254 0.57311356
0002c0 c8 ef 56 3e ef 0c 73 3f 39 84 d7 3e 7b f4 f6 3d
       0.20989907 0.9494161 0.42093065 0.1205835
0002d0 ab 72 38 3c 45 b7 a3 3e 2f 35 4e 3e fb 66 47 3f
       0.011257808 0.3197576 0.20137475 0.7789151
0002e0 63 95 c0 3e c0 e9 95 3d f6 c4 76 3f 4c a6 87 3f
       0.37613973 0.07319975 0.9639429 1.0597625
0002f0 47 56 81 3e bf ea 4e 3d 07 d3 43 3d ad 67 b1 3e
       0.25261137 0.05051684 0.047808673 0.3464941
000300 e5 8f c9 3d 2d b2 a8 3d 23 32 17 3f 28 ae 8f 3f
       0.09841899 0.08237109 0.5906088 1.1225023
000310 e8 c0 b0 3f e2 34 44 3f 76 4b 73 3f be 82 a7 3f
       1.380887 0.7664319 0.9503702 1.3086774

running_var f4 [200]
000000 39 9a 31 3e 6e 6a 24 3d c8 01 84 3e a9 01 e0 3d
       0.17343988 0.04014056 0.2578261 0.10937817
000010 c7 fe 88 3e 54 f4 f2 3e 56 d1 ec 3c 52 43 af 3e
       0.2675688 0.47452033 0.028908413 0.3423105
000020 59 65 cb 3e d0 d3 1d 3e 7b 5d 0c 3e dd 21 31 3e
       0.3972576 0.15412831 0.13707535 0.17298074
000030 0e 13 18 3d de 36 90 3e 16 b5 43 3e d2 72 59 3e
       0.037127547 0.2816686 0.19112048 0.21235207
000040 03 e4 00 3e f3 aa 19 3e 2a c7 bc 3e af e5 51 3d
       0.1258698 0.15006618 0.368707 0.051244434
000050 b9 c6 ab 3e 50 77 81 3e 8d fd 9b 3e f1 3b 00 3e
       0.3355005 0.2528634 0.3046688 0.12522866
000060 41 00 b6 3d ce 5d 12 3f ba 0a 31 3e ff da 25 3e
       0.08886767 0.57174385 0.17289248 0.16196822
000070 ef c3 9c 3d 8a cc 0b 3f 98 0e 58 3b 84 98 2b 3e
       0.07654559 0.54608977 0.0032967683 0.16757399
000080 82 81 a7 3e d1 c5 04 3e 67 67 ea 3e cf 51 b4 3e
       0.32715994 0.12966086 0.45782015 0.35218665
000090 30 ab 60 3e 77 5a 6d 3e d5 08 b9 3d 7f 4a 8a 3d
       0.21940303 0.23179041 0.09034888 0.0675249
0000a0 b8 b6 d3 3a 3b a9 00 3e 8d a8 53 3e 95 81 33 3e
       0.0016152477 0.12564556 0.20669766 0.175299
0000b0 ce dd a1 3e fc 44 c0 3e 0b fe 75 3e 3f b7 ac 3d
       0.31614536 0.3755263 0.24022691 0.08433389
0000c0 4c 96 94 3d 86 35 20 3e 24 0e c8 3e f7 53 b0 3e
       0.07255229 0.15645418 0.39073288 0.3443906
0000d0 16 11 39 3e d0 83 27 3e aa 2d 86 3e 58 69 08 3e
       0.18072924 0.16358876 0.26206714 0.13321435
0000e0 ec a0 6b 3c c7 ea 28 3d 3c 8e c7 3e 74 81 0c 3e
       0.0143816285 0.041239526 0.38975704 0.13721257
0000f0 ab 71 50 3e ea 4c 61 3d 88 2f 3b 3c 3c b7 51 3d
       0.20355861 0.05500499 0.011424907 0.051200137
000100 29 c0 80 3e fb 48 38 3c a7 c0 c2 3e df 6e 84 3e
       0.25146607 0.011247869 0.38037607 0.25865838
000110 95 09 ac 3d 5d 8f d8 3d f3 02 9b 3e 62 fa 4b 3b
       0.08400265 0.105742194 0.30275688 0.0031124582
000120 95 37 f6 3c 8e f3 20 3e 76 ef 70 3d b2 0e 0e 3e
       0.0300558 0.15717909 0.058822118 0.13872793
000130 ad be 83 3e 44 a9 64 3e 30 93 c5 3e ba ce de 3e
       0.25731412 0.22330195 0.38588858 0.43517095
000140 46 a2 99 3e 72 d8 1f 3e 5f 90 60 3e 87 14 60 3e
       0.30006617 0.15609911 0.21930073 0.2188283
000150 97 3a 71 3e 77 b5 cb 3e 42 9c 2c 3e ac 43 09 3e
       0.23557507 0.39786884 0.16856483 0.13404721
000160 94 7c 05 3e 2a 31 24 3e c1 dc 41 3c 89 f5 2a 3e
       0.13035804 0.1603438 0.011832417 0.16695227
000170 78 87 26 3e 63 0b 8a 3d 80 ff 61 3e de b7 b9 3d
       0.16262615 0.06740453 0.22070122 0.09068273
000180 e8 87 08 3e ac de d0 3e f8 8d 6a 3e 7a e1 7f 3e
       0.13333094 0.40794885 0.2290572 0.24988356
000190 78 ca 2b 3e fa 3f 9e 3e 1c 9b 6a 3e 9a 61 31 3c
       0.16776454 0.30908185 0.22910732 0.010826493
0001a0 3e 19 8b 3e 9c 2a 80 3e 07 bb 9c 3e 7e 64 ed 3e
       0.27167696 0.25032508 0.3061144 0.46365732
0001b0 75 26 95 3e 81 ec 8c 3e 67 48 5f 3e 00 d1 b1 3e
       0.29130903 0.27524188 0.21804963 0.34729767
0001c0 5a 27 4f 3e 73 0e 91 3e 31 29 73 3e 6f f4 5c 3e
       0.20229855 0.28331336 0.23746182 0.21577619
0001d0 5f e7 85 3e 87 a9 a4 3e 08 a3 69 3e 0f 19 dc 3d
       0.26153085 0.3216059 0.22816098 0.10746967
0001e0 32 42 97 3c 14 2f 10 3b d6 5e 36 3e 27 9a 8d 3e
       0.018464182 0.0022000717 0.17809615 0.2765667
0001f0 05 c0 85 3e ea b0 a1 3c b3 a1 0b 3f 95 c4 ec 3d
       0.26123062 0.01973768 0.5454361 0.115609325
000200 57 44 11 3d 7d 39 2e 3e 41 18 ba 3e 51 95 bb 3e
       0.035465565 0.17014118 0.3634663 0.36637357
000210 c8 86 23 3e 3b 5b 50 3e 78 5b 1b 3e 00 d8 39 3e
       0.15969384 0.20347302 0.15171611 0.18148804
000220 34 5e cb 3d 69 47 7a 3e 3b fc af 3e a6 71 82 3e
       0.09930077 0.24441303 0.34372124 0.25477332
000230 60 0e 25 3e ac 64 12 3e d5 50 39 3e 81 5c 47 3e
       0.16118765 0.14296216 0.18097241 0.19468881
000240 83 99 9d 3e b0 42 85 3e f9 d5 ec 3e c4 09 84 3e
       0.30781183 0.2602744 0.46256998 0.257887
000250 81 68 4b 3e b4 51 74 3e 9f 4f 20 3e 19 37 8b 3e
       0.19864084 0.23859292 0.15655373 0.27190474
000260 18 49 49 3d 62 77 98 3e 0d 66 0f 3e 08 41 50 3e
       0.049141973 0.29778582 0.14003773 0.20337307
000270 ad 51 51 3e d8 50 2e 3e 90 44 bd 3e 0b be 95 3e
       0.20441313 0.17023027 0.36966372 0.29246554
000280 cb 04 8a 3e 0e 0f b2 3e ad 73 8d 3e fc 2b 4c 3e
       0.26956782 0.3477711 0.27627316 0.19938654
000290 30 12 93 3e 1a f6 cb 3b bb 33 e0 3e 96 c5 0c 3d
       0.28724813 0.006224406 0.43789467 0.03436812
0002a0 d7 6d 86 3e f9 74 50 3b 0a f4 fe 3c e0 17 a7 3e
       0.26255676 0.0031808002 0.031122226 0.32635403
0002b0 14 54 b5 3e 58 14 31 3d d4 9f b8 3e 8d df ec 3d
       0.3541571 0.043232292 0.3605944 0.115660764
0002c0 d0 ab ac 3e 92 b6 8c 3e 1c 11 27 3e e4 7f 04 3e
       0.33724833 0.2748304 0.1631512 0.12939411
0002d0 22 1c 40 3c 54 9e 8f 3e c1 e1 31 3e 36 e1 2c 3e
       0.011725457 0.28050482 0.17371275 0.16882786
0002e0 51 26 b2 3e 19 15 07 3d f3 a5 16 3e 8b c3 4c 3e
       0.34794858 0.032979105 0.14711742 0.19996469
0002f0 bb 7b 9d 3e cb 1e a6 3d c7 31 85 3d 61 ef 67 3e
       0.3075846 0.08111342 0.06503635 0.2264991
000300 a7 c4 0d 3e d2 fc 46 3d 01 66 3a 3f c2 c5 59 3e
       0.13844548 0.048580952 0.72811896 0.21266845
000310 09 2b 9a 3e 69 34 45 3e 4e 91 30 3e f3 2d 5c 3e
       0.30110958 0.19258274 0.1724293 0.21501903

weight f4 [100, 200]
000000 0f cb 50 be f2 a2 e8 3d 18 68 a2 bd 3f aa 8a be
       -0.2038996 0.11359204 -0.079300106 -0.27083012
000010 b9 20 9d 3d 62 b0 56 bd fa 37 24 be 99 b8 4b 3e
       0.07672257 -0.052414306 -0.16036978 0.19894637
000020 a9 1e 1a bf 38 98 5a 3b a6 56 82 3d c5 93 ee 3d
       -0.60203034 0.003335489 0.06364183 0.116492786
000030 76 bc ab be d4 fd 18 3b 55 e2 00 bf ca 46 ec 3d
       -0.33542222 0.0023344653 -0.50345355 0.115369394
000040 0b 50 91 bf ca ae 2f be b6 f2 13 bc 11 e9 83 3e
       -1.1352552 -0.1715652 -0.009030035 0.25763753
000050 04 11 24 be 13 fc 8a bd af 7a dc 3d 42 9f 52 3d
       -0.16022116 -0.067863606 0.107655875 0.05142141
000060 ca 6b 81 3d 50 39 00 bf d4 a0 ed 3d 96 02 91 3c
       0.06319387 -0.5008745 0.11602941 0.017701428
000070 fc 56 0b bf 22 d4 aa 3b 4e 32 04 be 2c 2d 5e be
       -0.544296 0.0052132765 -0.12909815 -0.21696919
000080 fa 70 90 bd 28 44 87 3d f3 fb ab be 49 9f ed 3d
       -0.070527986 0.06604797 -0.3359066 0.11602647
000090 57 12 1d be e4 39 0a 3d fa db ee be 46 94 20 3c
       -0.15339027 0.033746615 -0.46652204 0.009800976
0000a0 e0 6f 1e bf a7 1e 85 3d 0e 58 fe 3c 0d d8 28 be
       -0.6188946 0.06499987 0.031047847 -0.16488667
0000b0 99 4f a6 bc 04 08 7b 3d 54 88 23 3e de 51 b9 be
       -0.020301627 0.06128694 0.15969974 -0.36195272
0000c0 72 ab b9 bd 2e 54 6b 3d fa 58 c3 3c e3 c6 1c be
       -0.09065904 0.057453327 0.023846138 -0.15310244
0000d0 1f ca 03 3e 71 92 f6 3d a8 f6 21 3d 56 f0 65 3d
       0.12870072 0.1203965 0.03954187 0.056137405
0000e0 ce af 1c bf 10 c0 ab 3b 34 34 e5 3d ca 43 4c 3e
       -0.61205757 0.0052414015 0.111915976 0.19947734
0000f0 16 6c d7 bd 12 73 a2 be 7f 43 d9 be 35 15 b8 bc
       -0.10518663 -0.31728417 -0.42434308 -0.02247105
000100 b0 b8 40 bd e9 d8 0a 3e 88 d2 79 3d 91 e9 11 3c
       -0.04705113 0.13559307 0.060991794 0.008905784
000110 b7 0d 92 3b eb 17 5f 3c 41 de a4 bd f8 e8 10 bf
       0.0044572013 0.013616542 -0.08050204 -0.5660548
000120 40 5b cd 3d 11 98 df 3d 57 3f 4e 3e 1c 82 c1 3c
       0.1002717 0.10917676 0.2014135 0.023621611
000130 4a 06 d1 bd c5 9c aa 3d 0b dc 71 bd 48 50 28 3d
       -0.10206278 0.08330683 -0.05904774 0.041092187
000140 5d 42 18 bd 0e 28 e0 3c 67 24 29 be df 66 28 bd
       -0.037172664 0.02736285 -0.16517793 -0.04111373
000150 ba 88 3c be 0d f6 46 3d 6e 46 9c bd 72 7b 7c bf
       -0.18411532 0.048574496 -0.07630621 -0.9862586
000160 0e 24 30 bc 64 03 66 39 eb 91 df be e0 20 5d bd
       -0.010750784 0.00021935772 -0.43666014 -0.05398643
000170 1c 94 f0 3c 64 db c0 bb 32 e6 13 3b 12 58 dd be
       0.029367499 -0.0058855284 0.0022567627 -0.43231255
000180 7b 26 cc 3c 86 0c 87 3d 80 c6 e9 bd e8 f6 cc bd
       0.024920693 0.065941855 -0.11414814 -0.10008031
000190 72 a1 37 3d 1b 9b ed bc 96 ac c7 bd 4d 3f af 3e
       0.0448317 -0.029004624 -0.09749715 0.34227982
0001a0 6a 69 86 bd 06 3b 2a bf 1c 19 52 bf a3 ef da 3c
       -0.06563075 -0.6649631 -0.82069564 0.026725596
0001b0 0f a5 7e 3d d4 8a ec bb 6f 9f 95 be 1a d2 2d bd
       0.06216913 -0.007218698 -0.292232 -0.042436697
0001c0 7f 13 f0 3d 1d c8 84 bd 03 54 8d bd bd ce 0c 3e
       0.117224686 -0.06483481 -0.069007896 0.1375074
0001d0 f6 cf 44 3b 2a 9d 41 be e1 22 1c bd b1 1f 23 bf
       0.003003118 -0.1890761 -0.0381192 -0.6372023
0001e0 43 68 df 3d b6 a9 ac bd 58 3b 88 3c ff 8d 03 3e
       0.10908558 -0.08430807 0.01662986 0.12847136
0001f0 07 a6 7a 3c 3c 30 cd 3b 81 00 b9 3c 6f 31 2d 3e
       0.015298373 0.0062618535 0.022583248 0.16913389
000200 18 85 08 bf b3 9d e1 bc c8 08 6f 3c 8d 3d 71 3d
       -0.53328085 -0.027541017 0.014589496 0.05889659
000210 d4 b3 50 bd 38 75 82 bc 0c 5d 98 be de 88 22 be
       -0.050952747 -0.015925035 -0.2975849 -0.15872523
000220 dc bf a1 3d 82 77 ac be e2 c8 99 be 96 89 bb 3c
       0.078979224 -0.33684927 -0.30036074 0.022892755
000230 33 2c e6 3d 3b af 83 be 56 48 6e 3d f8 93 05 3e
       0.11238899 -0.25719628 0.058174454 0.13044727
000240 80 00 69 3d 74 95 71 3b 90 90 b4 3d c0 a7 9f bc
       0.056885242 0.0036862763 0.088166356 -0.01948917
000250 4d bd a5 bc d1 f6 9a bb 6d f5 60 3c 24 42 8e 3d
       -0.020231867 -0.00472913 0.013730389 0.06946209
000260 aa 29 4e be 71 29 d9 bd a6 46 5d 3d 7c dd 10 3d
       -0.20133081 -0.106036074 0.054022454 0.035367474
000270 41 44 92 3d 0c 91 93 3c 36 fe 81 be b4 db 53 bd
       0.07141925 0.0180135 -0.2538926 -0.051723197
000280 fa 26 78 3d ae 3b 1f bf 8b 0b d3 3d 82 26 58 3c
       0.060584046 -0.6220044 0.10304936 0.013192775
000290 d9 82 b6 bd c1 5c e1 bd fb a1 05 3e 10 bc b6 3d
       -0.08911676 -0.110040195 0.13050072 0.08922589
0002a0 3e 16 52 3d 6d ff 41 3e 77 5a 38 bd e8 ef 28 3e
       0.051290743 0.18945093 -0.04500815 0.16497767
0002b0 72 f2 b9 bb ea 51 56 be 4b b4 1d bd 58 47 be 3b
       -0.0056746537 -0.20929685 -0.03850202 0.0058068447
0002c0 5f 61 06 3d 8c e6 85 be fb e0 90 be 4d 45 36 3e
       0.032807704 -0.26152456 -0.28296646 0.17799874
0002d0 6c 08 f8 3d 4f 50 7c 3d 29 94 05 3e 14 5c 99 3d
       0.12110981 0.061600026 0.130448 0.07488266
0002e0 d1 e3 ae bd 97 ea a0 be 5e a4 3f 3d 56 64 55 3d
       -0.08539546 -0.31428978 0.046787612 0.05209764
0002f0 67 12 97 bd 25 bb 34 bf e4 c2 66 3d 4c c0 15 bd
       -0.07376557 -0.7059806 0.056338206 -0.03656034
000300 06 a5 8e 3c 51 ce 36 be 93 39 02 3d 73 54 aa bd
       0.017412674 -0.17852141 0.03179319 -0.08316889
000310 6e 2b 68 be 67 8e 62 be 45 44 12 3d 68 54 94 bc
       -0.22672817 -0.22124635 0.03570964 -0.018106654
000320 ab 98 00 be 68 20 89 3d 20 99 97 3d 5b a2 45 be
       -0.12558238 0.06695634 0.07402253 -0.19300215
000330 72 1c ae 3c 7c a2 ba bd dc e1 7c bd 71 4c 03 3e
       0.021253798 -0.09113023 -0.061738834 0.12822129
000340 34 60 82 bd 50 b3 76 3d 40 92 af 3d 74 7a 34 3d
       -0.063660055 0.0602296 0.08572817 0.044062093
000350 f9 d3 94 bd 65 c9 91 3c ad cc 75 bd 44 66 68 be
       -0.07266993 0.017796228 -0.060009647 -0.22695261
000360 89 09 23 be 36 90 01 be 52 ee a0 3d 0e d7 c0 bc
       -0.15921606 -0.12652668 0.07857956 -0.023540046
000370 41 d4 69 be bd 4e 27 be 38 0a 84 3d 08 d2 ab 3b
       -0.22834875 -0.1633863 0.064472616 0.0052435435
000380 d7 42 88 3c cb 24 5f bd 75 43 30 be 92 15 d6 3d
       0.016633434 -0.054478448 -0.17213233 0.10453333
000390 fb e5 45 be 2d 22 c3 bd 68 2c 0c be fc 6c 26 be
       -0.19326012 -0.09528003 -0.13688815 -0.16252512
0003a0 84 3a 72 3b 9f f8 45 3d a7 74 41 bd 70 66 aa 3d
       0.0036961148 0.048332807 -0.04723039 0.0832032
0003b0 13 2b 41 be bb ba c7 3d dd 04 38 be 01 a3 16 bd
       -0.18864088 0.09752413 -0.17970605 -0.036776546
0003c0 89 a9 69 be 49 51 ad bd 8c 8d 9d be 57 5c 66 be
       -0.22818579 -0.084627695 -0.30772054 -0.22496162
0003d0 8a 92 6a 3d 05 33 c6 3d 45 2d e4 3d 17 17 95 bd
       0.057268657 0.096777 0.11141447 -0.07279795
0003e0 69 48 0c be fa 75 c6 bd a7 0c 85 3a 75 4c 1f be
       -0.13699497 -0.09690471 0.0010150865 -0.1555651
0003f0 bd bb 92 bd f3 0c 27 be 18 6e f4 3d 86 6a 48 bc
       -0.071647145 -0.16313533 0.11935061 -0.012232428
