Machine_Learning/PyTorch/PYTORCH_NOTEBOOKS/02-ANN-Artificial-Neural-Networks/TaxiFareRegrModel.pt (torch, 113702 bytes, 20 tensors)

embeds.0.weight f4 [24, 12]
00000000: efb4 ce3e 53cb e6bd d5b4 0bbf b57b 123f
00000010: 43dd 4e3f e846 08bf 9307 b43f dcd4 ef3d
00000020: 2dbb 95bf 453e 9f3f 6e56 db3e 83b6 8cbe
00000030: 7b4e 8b3d ce5d a9bf 07f5 d53d 18d0 323f
00000040: 2038 dbbe f7f6 adbf e616 973f 5a0a 19bf
00000050: c8d2 c63d ec32 a03f d9b2 28bf ef8a 1c3f
00000060: ed68 a83e 76f1 8ebf 57cd e2be cc13 ac3e
00000070: ca01 6bbe ab4a 2ebf 5d8e aabf c653 85bf
00000080: b9c8 73bf b25f d73e e506 6abf afa3 493f
00000090: ef1b 93bf 7152 9ebe baba 8ebf f475 b03f
000000a0: bff0 8abe 8374 983e 95c8 e43e c1b4 573f
000000b0: 8707 0a3f b00f 3c3e 1b1c 193e dc87 27be
000000c0: 9b05 7bbf 6c0c 5cbf 913a b43f 6e00 a7bf
000000d0: 079c a1be 5b9f c1bf 0cf6 b8be 9ad1 973f
000000e0: cbdf 0b3d 06e0 23bf 8e28 413f e0d2 f13e
000000f0: 1ade 8d3e 13d7 60be 15b4 3b3f ec4d 26c0
00000100: fbd6 7cbe a188 0fc0 f79c dcbf 65ef 7bbc
00000110: f215 87bf a34b 253f 4738 953e 86b5 4a3f
00000120: a778 643e 3c6e 863f ded3 163f 21c2 1cbf
00000130: 4ece 0ebf fff5 1dbf 8317 0a3f d959 28be
00000140: 3c40 c93f f70d a3bf ca7c e8bd 1ca3 983f
00000150: 7f51 db3f 2efe e4bd 6823 833d 635e 8fbf
00000160: 3c7a 2fbf bd0f 69bb e977 1a3f b879 9cbf
00000170: 3db0 16bf 6f43 81bf ddac debe c600 8ebf
00000180: 8ef4 25bf bb9f 64bf 39a7 2940 df47 af3f
00000190: 4aab a0bb 3c01 1dbf 3d0e 00bf b638 0d3e
000001a0: 7c81 153f c413 a13f 1954 fe3e 30e5 12bf
000001b0: 0cd4 863f f9b9 c63d bf69 923f c49e 5dbd
000001c0: a284 a1bf a32e 133f a7be 8ebe 9791 82bf
000001d0: 9d1b 663f 84fa bb3f 0500 aabf f750 303e
000001e0: d69e 97be 7583 c83f ebbb b1be 10cc 82be
000001f0: c64e 0f3f b122 59bf 766c 75bf 98f3 3c3f
00000200: 78f6 003f cc28 0abf 19f1 e3bf 2883 10bf
00000210: 6b58 d13e ed59 643f 6613 46bf 27bf ec3f
00000220: 5a80 473f 78c5 743f 9228 613f 2a9f 78bf
00000230: e97e a6bf 0884 ffbf 82c6 81bd f259 1dbf
00000240: 7caa b4bf 285b 23be 973f 643f c825 583f
00000250: eb5f 96bd b00b 8f3f e26f 78bf c3ce 0f40
00000260: 0c99 74be a6ea b23e 230f a43f bd28 b4bf
00000270: 7036 e33f 2ff3 b93e ca0c 2fbf b7c2 6bbf
00000280: df6c 64bf af34 98bd 6010 333e 6684 ee3e
00000290: 7c3a 07be e4f5 73bc 36ef d3bf c36b cbbf
000002a0: f564 4a3e bc86 b7bf ffb0 8a3f d084 723f
000002b0: 27a8 d9bf c2e1 b8bb a1f6 ae3f 96cb b9be
000002c0: a363 8cbf 21cc d13e 49db 8d3f 9655 53bf
000002d0: f582 943b 1cbe 61be dec3 5e3c 4d89 d03d
000002e0: 3513 5c3f 3f95 7f3f 1a97 c6bd 149c f7bf
000002f0: b160 713e 1851 4fbf 6ca9 cfbf cd26 4bbf
00000300: a46f b2bf 4400 b3bf 43b8 ecbe 874b b1bf
00000310: 20b1 76bf 7c23 933b 2bb9 983f cd80 e13f
00000320: c843 ddbc c99e 623e aa69 dfbe f9ca bcbe
00000330: 1015 fabe 4cdf 06c0 f1ef 73bf 30be 9dbf
00000340: daab 743e 7158 d23e 9f92 cabf a1d3 2fbe
00000350: be3e 38bf 36fc e5be 0987 acbe 836b a63f
00000360: c922 ddbf b424 44bf 2c9d 07bf 259b 80bf
00000370: 8d89 4d3f 4835 b4be 6eca dd3e 74b5 4abd
00000380: 3e0e 80bf 1e48 093e 873b 8ebf 1624 74bf
00000390: dcc6 bebf 0172 923e 48f4 74bf 9c6e 98be
000003a0: 1da1 cc3e ce54 1a3e ca5a fd3f 1efb 73be
000003b0: f4f1 ab3f 1fef e1be c0da c9bc 499f a03f
000003c0: cdde ebbf 9577 1bbf f0ae a6bd 6f10 10bf
000003d0: a4da 9bbe 6e70 87bd 62b3 0bbf c6de 23c0
000003e0: f33e f83e 6768 193f 0446 5ebf c7d2 763f
000003f0: 62c7 9ebf e968 79be 430a 94bf 2388 e7be
0.40372416 -0.1126925 -0.545728 0.5722001 0.8080637 -0.53233194 1.4064811 0.117105216
-1.1697747 1.2440878 0.42839378 -0.27482995 0.06802078 -1.3231752 0.10447126 0.69848776
-0.42816257 -1.3590993 1.1803863 -0.5978142 0.09708172 1.251554 -0.658979 0.61149496
0.32892552 -1.1167438 -0.44297287 0.33608854 -0.22949901 -0.68082684 -1.3324696 -1.0416191
-0.95228153 0.42065197 -0.9141677 0.78765386 -1.14929 -0.30922273 -1.1150734 1.3785996
-0.271368 0.2977639 0.44684282 0.84260184 0.53917736 0.1836536 0.14952128 -0.1636042
-0.9805543 -0.85956454 1.4080373 -1.3047006 -0.31564352 -1.5126756 -0.3612522 1.186084
0.034148972 -0.6401371 0.75452507 0.47231197 0.27708513 -0.21957044 0.7332166 -2.598506
-0.24691384 -2.2427142 -1.7235402 -0.0153769 -1.0553572 0.6456854 0.291445 0.7918323
0.2231165 1.0502391 0.58917034 -0.6123372 -0.55783546 -0.61703485 0.53942126 -0.16440524
1.5722728 -1.2738637 -0.113519266 1.1924777 1.7134246 -0.111812934 0.064032376 -1.120068
-0.6854589 -0.003556236 0.6033922 -1.2224646 -0.5886267 -1.0098704 -0.4349126 -1.1093986
-0.64826286 -0.8930623 2.6508315 1.3693808 -0.0049032317 -0.6133001 -0.50021726 0.13791165
0.584007 1.2584157 0.49673536 -0.5738096 1.0533462 0.0970344 1.1438521 -0.05410649
-1.2618601 0.57493037 -0.2787983 -1.020068 0.89885885 1.4685826 -1.3281256 0.17218386
-0.2961337 1.5665118 -0.34713683 -0.25546312 0.55979574 -0.8481856 -0.95868623 0.73809195
0.5037608 -0.539685 -1.7807952 -0.5645013 0.4088777 0.89199716 -0.7737335 1.8495835
0.77930224 0.95613813 0.8795253 -0.97117865 -1.300748 -1.9962168 -0.063366905 -0.6146537
-1.4114528 -0.15952742 0.8915953 0.8443265 -0.07342514 1.1175442 -0.9704572 2.2469947
-0.23886508 0.34944648 1.2817119 -1.4074932 1.7750988 0.36318347 -0.6837889 -0.92093986
-0.89228624 -0.074319236 0.17486715 0.46585387 -0.13205904 -0.014890168 -1.6557376 -1.5892261
0.19765075 -1.4337993 1.0835265 0.94733906 -1.7004441 -0.005642147 1.3669015 -0.36288136
-1.0967907 0.4097605 1.1082546 -0.8255247 0.004532213 -0.22045177 0.013596503 0.10182438
0.8596681 0.99837106 -0.09696789 -1.9344506 0.23572041 -0.80983114 -1.6223578 -0.7935608
-1.394032 -1.3984456 -0.4623433 -1.3851174 -0.9636402 0.004490314 1.1931509 1.7617432
-0.02700986 0.22130884 -0.43635303 -0.36873606 -0.48844194 -2.107379 -0.95287997 -1.2323666
0.23893681 0.410831 -1.5825995 -0.17170574 -0.71970737 -0.44918984 -0.33696774 1.300156
-1.727624 -0.76618505 -0.529742 -1.0047346 0.8028801 -0.351969 0.43318504 -0.049489453
-1.0004346 0.13406417 -1.1111916 -0.9536756 -1.4904437 0.28602603 -0.95685244 -0.29771888
0.3996667 0.15071413 1.9793332 -0.23826262 1.3433213 -0.44127747 -0.024640441 1.254861
-1.8427368 -0.6072934 -0.081388354 -0.56275076 -0.30440247 -0.06613241 -0.5457059 -2.560472
0.48485526 0.5992493 -0.86825585 0.9641537 -1.2404597 -0.24356426 -1.1565632 -0.45221052

embeds.1.weight f4 [2, 1]
00000000: 248b 32be 9752 893e
-0.1743589 0.26820824

embeds.2.weight f4 [7, 4]
00000000: 5200 713e ef1c 8c3e 89c3 523f 7c4b e2bf
00000010: 8fc6 f53e 038d 33bf cf6c 953f c976 e23e
00000020: c672 c43f 4b24 adbf 14e9 bcbf d4a2 de3e
00000030: f46a 2e3f d471 7cbe 49ea febf c579 d0bf
00000040: 1754 10bf 4d01 cbbe adc1 ca3f d43b 073f
00000050: 57eb c93f 2b07 03bf a7dd a0bf 1063 ccbe
00000060: 6cc0 3c3f ede8 4dbf e005 18bf bc3e 0a3e
0.23535278 0.27365825 0.8232961 -1.7679286 0.4800305 -0.7013704 1.1673831 0.4423125
1.5347526 -1.3526701 -1.475863 0.43483603 0.6813195 -0.24652797 -1.9915248 -1.6287161
-0.5637831 -0.3964943 1.5840355 0.52825665 1.5774945 -0.5118281 -1.2567643 -0.3991933
0.7373111 -0.8043354 -0.59383965 0.13500494

bn_cont.weight f4 [6]
00000000: 3485 813f 74be 8a3f a40c 823f 3f48 913f
00000010: 9048 593f 5fad 8e3f
1.0118775 1.0839372 1.0160108 1.1350173 0.84876347 1.1146659

bn_cont.bias f4 [6]
00000000: 0f6b 51bb 84ba 1dbe 5d58 b03d c8ec 2a3b
00000010: 9d0c 97bd b9e0 45be
-0.003195468 -0.15403181 0.08610604 0.0026081074 -0.07375453 -0.19324006

bn_cont.running_mean f4 [6]
00000000: 6f01 2342 23f4 93c2 df01 2342 14f3 93c2
00000010: 7795 ac3f c900 5440
40.7514 -73.97683 40.751827 -73.97476 1.3483113 3.312548

bn_cont.running_var f4 [6]
00000000: 30f0 2d3a ece2 843a ae4f 703a 2d56 8a3a
00000010: 73a3 133f ae3e 3141
0.0006635217 0.0010138429 0.00091671466 0.0010554247 0.5767128 11.077803

layers.0.weight f4 [200, 23]
00000000: 1f10 21bd a225 9fbb b6ad d13c 5217 05bc
00000010: 6137 47bb 50b0 e1bc 064a b2bb 587e 0bbd
00000020: dcee 21bc 5eed 21bd ea5c 00bd c432 c7b8
00000030: d70c 2c3e b3cb 6d3c 1f45 9cbd d45c 553c
00000040: 4d08 08bd ce8f 853d 9f24 bebb f8e8 a1bd
00000050: f8b6 f83c c38d ba3b 11a6 9bbe 0f8f babd
00000060: fa83 ec3d b6f1 56bd 8820 243e 954d 4d3d
00000070: 9c2c 703d db68 fbbc 2893 e63d 5b3e 0a3e
00000080: 0e91 033c dc39 20be 88b9 03be fa5f 58be
00000090: 243e b83d 1274 c3bd 1279 223d 5b05 693d
000000a0: bcca e4bc fe17 943d 1b9e f7ba 3bd0 613c
000000b0: b322 403b f72c 7d3e 6d9c b2bd f860 133c
000000c0: 1c71 1c3a 054a 51bd ccd7 9dbd e1b7 943c
000000d0: 5a89 18bd e48b 733d 8b25 193d 7c3a 19bd
000000e0: 9770 90bc d74a 6ebd 77fe 2bbe d1c4 3a3d
000000f0: 8d05 bdbd 7177 503d 684b 323d eb27 2fbc
00000100: 45fd 993c 4147 12bc 4d22 673d d3a7 3a3a
00000110: 1593 473e afba 51be ea4b c23d a166 fbbc
00000120: cd9b fc3d aa06 c1bd 803c 53be c129 32be
00000130: ea97 943d 7993 38bc df9a 22be 5fcb b43a
00000140: 43bf 523d d8c6 64bb f33e aebd 339f ec3d
00000150: 0e4e edbd ad30 a23d f37d eb3d 4f5f a0bd
00000160: 3cb8 0cbe b023 11bd f8ad f13d 04f8 46be
00000170: a156 d4bc 4301 c5bb 63b3 393c 0490 efbb
00000180: 9b77 a2bd c891 1abd 2797 fabc 47ae 613d
00000190: 2112 d83c 6ac5 963d f10f 2cbd 219b 0c3d
000001a0: ecfe ec3c 0fa1 213d 18ac a3bd 0edf 493d
000001b0: cc27 68bd f6d2 d93d 5f89 a23c 37dc d9bd
000001c0: ced3 083d 9310 243d 4aed 673e d2c6 57bc
000001d0: 7701 66bc 7909 983c ea7a 953b 3221 03bb
000001e0: 5735 89bb 9d7d 3f3d e32d cdbb 1923 bd3c
000001f0: 265e 34bc a873 07bd e50c 23bd 0cc9 48be
00000200: dc0f 88bc 1aba 25bb 4b76 14bc e435 9b3d
00000210: 1253 e8bc 52bb 74be 3dae 16be df3e 833e
00000220: 4ca0 5639 3d8f 693d b095 32bc 4cd0 9c3c
00000230: 12d5 debc 80aa 69bc a0e8 843d b0e8 b4bc
00000240: 0d2a 89bd 9b69 013d dc38 3fbd 1056 c5bb
00000250: 88f4 3d3d b1a6 97bd 5ee1 07be 90fe 553b
00000260: 3b22 d5bd c17f b93b 0788 fc3d 1b5f 003d
00000270: a447 c1bb 5765 31be df99 013e 5232 c4bd
00000280: 3754 9bbe 0fc1 a33d f2ed 07bc 62db 173e
00000290: 24de 27bd 02c4 b13d 7da6 a8bb f603 493c
000002a0: a87c e3bd 0176 94bd c354 37bd 101c aa3d
000002b0: df22 9d3d bf96 58be df56 c9bc f4f0 aa3d
000002c0: 542c 7cbd 1bbd a8bd 635a c63e aab1 48be
000002d0: 8778 103d fea5 2ebe f66a 9ebc be86 a8bd
000002e0: ba3f 25bd e8f3 cc3d 3aec 68bd ec1e e5bd
000002f0: 08fb 893d a834 e1bd ff3d 9f3d f2c7 e13d
00000300: a5d9 8c3d d2f7 dfbd 73c3 8bbd c75b 05bd
00000310: 796a bbbc a8f9 2abe 6550 4bbd 0331 473e
00000320: 2ebb 8f3b 1f90 ecbd 8fdb 9c3c c282 30be
00000330: 8f70 b33c 1fd0 443e 1348 fd3d e606 863d
00000340: fd65 1d3c 9b8d ae3d ca6d cabc ea34 01bd
00000350: a0d7 bb3d 7fcb 123d db9f 10bc 190a 72bd
00000360: 6b0e 38bd 0127 1fbb e1f2 493d bee4 893d
00000370: fd5b e0bd eefc b7bd 51e3 413d 583e 2ebd
00000380: 10bf af3d 989f 88bd 83fb f5bc a589 7b3d
00000390: 8510 ed3c a425 663e 32fb c23d 6e59 083d
000003a0: 0187 163e 2277 17be d68c fc3d 505a 20be
000003b0: 81a8 cebb 7cf3 2ebd e4b9 ca3d 23ce 20be
000003c0: 696e 76bd 43ee 63bd 3808 823d 949a 0a3e
000003d0: a7b6 83bc 899d 943c c552 ec3d 63c7 08bd
000003e0: acc8 423e c846 1c3e c075 c5bd 2dac 7d3c
000003f0: 4baf 6e3e 966f 00bc 5aa0 8fbc 4e35 383d
-0.039322015 -0.004856781 0.025595527 -0.008123236 -0.0030397999 -0.027549893 -0.005440953 -0.034056038
-0.009883609 -0.03953301 -0.03133861 -9.498515e-05 0.16801773 0.014513898 -0.07630371 0.01302262
-0.03321104 0.06521569 -0.0058027054 -0.079057634 0.030360684 0.005693169 -0.30400136 -0.091093175
0.1154861 -0.052476607 0.16028035 0.050122816 0.058636293 -0.030689647 0.112585366 0.13500349
0.008030189 -0.15647072 -0.12863743 -0.21130362 0.089962274 -0.09543623 0.039666243 0.056889873
-0.027928703 0.07231139 -0.0018891724 0.013782556 0.0029317557 0.24724184 -0.08721242 0.008995287
0.00059677823 -0.05109598 -0.077071756 0.018154087 -0.037240364 0.059459582 0.03738932 -0.03740929
-0.017631812 -0.05817684 -0.1679629 0.045597855 -0.09229574 0.05089516 0.043528944 -0.0106906695
0.018797526 -0.008928121 0.056429196 0.00071203447 0.19489701 -0.2048137 0.09487136 -0.030688586
0.12334404 -0.09425099 -0.20628548 -0.1739874 0.07255538 -0.011265629 -0.15879391 0.001379352
0.051451933 -0.003490856 -0.085081 0.11553802 -0.115871534 0.079194404 0.11498632 -0.07830679
-0.13742155 -0.035434425 0.1180076 -0.19430548 -0.025920214 -0.0060121133 0.011334273 -0.007310869
-0.07932969 -0.037736684 -0.030589653 0.055097844 0.026375832 0.073618725 -0.04200739 0.03432763
0.02893015 0.039460238 -0.07991809 0.049284987 -0.05667858 0.10635941 0.019840894 -0.10637706
0.033405118 0.04005487 0.22649112 -0.013169961 -0.014038435 0.018559204 0.0045617716 -0.00200088
-0.004187267 0.046750654 -0.0062615736 0.023088025 -0.011008775 -0.033069283 -0.03980722 -0.19607943
-0.016609125 -0.0025287927 -0.009061406 0.07578638 -0.028359924 -0.23899582 -0.14714904 0.25633904
0.00020468346 0.05702137 -0.010899946 0.019142292 -0.02720121 -0.014261842 0.06489682 -0.02208361
-0.06697474 0.031594854 -0.046685085 -0.0060222223 0.04637578 -0.07404841 -0.13269565 0.0032652952
-0.104069196 0.0056609814 0.12330633 0.0313407 -0.005898433 -0.17323814 0.12656353 -0.0957991
-0.30337688 0.079958074 -0.008296477 0.14829782 -0.040983334 0.08679964 -0.0051468 0.012269011
-0.11107761 -0.0724907 -0.04475857 0.08306134 0.07672667 -0.21151255 -0.024577556 0.083467394
-0.061565712 -0.08239194 0.38740835 -0.19599023 0.035271194 -0.17055508 -0.019338112 -0.08228825
-0.040343978 0.10007459 -0.05686591 -0.111875385 0.067373335 -0.109963715 0.07775497 0.11024465
0.0687745 -0.1093594 -0.06824388 -0.03255823 -0.022877919 -0.16696799 -0.049637217 0.1945229
0.004386327 -0.115509264 0.019147662 -0.1723738 0.021904258 0.19220017 0.12367263 0.065442845
0.009606835 0.08523103 -0.024710555 -0.031544603 0.091719866 0.0358386 -0.008827175 -0.05909166
-0.044935625 -0.0024284723 0.049303893 0.06733082 -0.10955045 -0.089837894 0.047335926 -0.042539924
0.08581364 -0.06671065 -0.030027157 0.061410565 0.028938541 0.22475296 0.09520568 0.03328841
0.14699937 -0.1479154 0.1233155 -0.15659451 -0.0063067083 -0.042712674 0.09898737 -0.15703635
-0.06016389 -0.055647146 0.06349224 0.1353553 -0.016078306 0.018141525 0.115392245 -0.033393275
0.19021863 0.15261376 -0.096416 0.015482944 0.23309056 -0.007839104 -0.017532516 0.04497271

layers.0.bias f4 [200]
00000000: 1f71 853e 0f02 17be 7f98 7fbd 64f5 e6ba
00000010: 1e90 b03d 2f05 6bbe b66a 093d 08e0 533d
00000020: a956 97bd 0478 a13c c2b1 8c3d f729 acbb
00000030: c497 b23b 1f4e 6abd 34e2 64bd d9ad 983e
00000040: 75d5 d13c 68d4 583e e907 26bd 4910 00be
00000050: e932 2b3e 8c62 ee3d 3473 333b 2ade 87bd
00000060: 7f7b 39be 1b58 f53d fbc0 8d3e 9629 9fbd
00000070: a45f 30bd 5b87 833e 8afd ab3d 2424 a43d
00000080: 2f86 253e 76bf 593b d24d 293e 0870 b2bd
00000090: 577b 4fbd a6a8 b63c 1bf1 f23d 0d30 0f3d
000000a0: 1a36 92bd 0ceb 683d adf3 d7bd 5809 353e
000000b0: 26f1 903e b24f 653e 8309 93be 5d5c 09be
000000c0: 03fc 203e dcae 503e cfa6 13be 1412 63be
000000d0: 662e bfbd de3e fb3d 7a97 abbd ead0 a6be
000000e0: 5b70 d9bd f668 29bc 565a 783e ede2 e43d
000000f0: 2e6b 4d3d 99f3 8dbd 094e d9bd b8d0 603e
00000100: b0cf 683e 51fe 47bc ca80 11bd 14e7 25be
00000110: 6a99 2b3e 086a 43be 5a41 513d fca1 2ebe
00000120: e446 213e 5166 5ebd feba a9bd f352 4c3e
00000130: 53cc be3d 0461 aabd 6c6e e93d 06b6 bdbb
00000140: d650 df3c 93a5 35bd 0680 f2bc 945d 0dbe
00000150: 287d d83d 363f 4ebe 10e5 3aba b215 f23d
00000160: 51db 51bd 92b2 593e 8a57 99bc 097b 40be
00000170: 8229 8c3e 4299 4cbd 3d62 093e a45e 763c
00000180: 55ce d93d 5d29 59be 673d e93d d883 2bbd
00000190: 4871 cfbd 26b4 8a3d 920d 543e 5059 f43d
000001a0: 3f98 9e3c 5760 d4bc f2a2 be3e 4b88 293e
000001b0: 507b 8f3c d05d 70bd 015a 1e3e 3d7d 233d
000001c0: 2538 f23c add3 dabd 56b5 0e3e 8332 c0bd
000001d0: 03b3 883d 5893 9abd 2fda 00bc ef6f 44be
000001e0: bde7 e23d fa22 a7bd 4651 8ebe a684 613d
000001f0: 9cdf 233e 473f bebd 6f22 8dbd f274 0b3d
00000200: 20ec 423d 3dc9 2c3e a9b8 2d3e 4128 4a3e
00000210: 0b86 863d ab81 443d 74d3 aabd 169d 27bd
00000220: f83c 7c3c d65e 9cbc 767a 9d3e 83de b63c
00000230: e112 b53e 2156 fcbd 565d d9bd 6961 313e
00000240: 7798 0dbe 0550 3f3d 9a4c b13d 3159 9e3d
00000250: ea5c f5bb b05b 4cbd cc39 333e 23fb b5bd
00000260: 76ac 2fbe 9a6e e5bd 28f6 633c 5155 683d
00000270: 2326 853d 043b 913d c06b a8bd a1c3 d83d
00000280: 2051 2f3e cb56 213e 1115 84be 168c 103e
00000290: 850b 70bd 3a5d 0abc f217 7f39 e1a9 103d
000002a0: eb5d 443e 500d 9ebe 5022 91bd f8ca 9e3c
000002b0: f58f 2b3e 954f d7bd 8160 8b3d bcbc 583b
000002c0: 168e 76bd 08f2 773e edaa 80be 52ba c1be
000002d0: 9280 e33d 26f7 2bbd a96a 1f3e 242c c53d
000002e0: 79a4 1f3d 1f4a 27bc 9dca 153e d0b8 423d
000002f0: affe e53d 9541 0a3e d216 52be 924b ed3d
00000300: 695c 7cbd 3600 0dbd 9164 fc3d 5807 2e3e
00000310: 9571 ebbd 59a1 9bbd fb67 8b3c aaee 4c3e
0.26062867 -0.14746879 -0.06240129 -0.001762074 0.08621238 -0.22951196 0.033549033 0.051727325
-0.07389576 0.019710548 0.06869842 -0.005254026 0.005450221 -0.05720341 -0.055879787 0.29820135
0.02561448 0.21174777 -0.040534887 -0.12506212 0.1671864 0.1163989 0.0027381899 -0.06634171
-0.18113516 0.119796954 0.27686295 -0.07771604 -0.04305996 0.25689206 0.08397968 0.08014706
0.16164468 0.0033225692 0.16533592 -0.087127745 -0.050654735 0.022297215 0.118623935 0.034957934
-0.07139225 0.056864783 -0.10544524 0.17679346 0.28308982 0.22393683 -0.28718194 -0.1341414
0.15721135 0.20379204 -0.14419101 -0.22174865 -0.09335022 0.1226785 -0.08378501 -0.32581264
-0.10617133 -0.010339966 0.2425321 0.11176095 0.050151043 -0.06931228 -0.10610587 0.2195462
0.22735476 -0.01220663 -0.035523213 -0.1620143 0.16757742 -0.19083416 0.051087715 -0.1705398
0.15749699 -0.054296795 -0.08287619 0.19953518 0.093163155 -0.083192855 0.113980144 -0.005789521
0.027260225 -0.044347357 -0.029602062 -0.13805228 0.10570747 -0.201413 -0.000712947 0.11820544
-0.051234547 0.21259525 -0.0187185 -0.18796934 0.27375418 -0.049950846 0.13416381 0.0150372125
0.10635058 -0.21207185 0.11388665 -0.041873783 -0.101290286 0.06772642 0.20708302 0.119310975
0.019359706 -0.025924845 0.37233692 0.16555898 0.017514855 -0.058683217 0.15464021 0.03991436
0.029567787 -0.10684905 0.13936362 -0.09384634 0.06674769 -0.07547635 -0.007864519 -0.19183324
0.11079357 -0.08160968 -0.27796382 0.055058144 0.16003269 -0.09289413 -0.06891333 0.034047075
0.047588468 0.16873641 0.16964974 0.19741918 0.065685354 0.047975224 -0.08341113 -0.040921293
0.015395395 -0.01908819 0.30757493 0.022322899 0.35365966 -0.12321115 -0.106135055 0.17322315
-0.13827692 0.046707172 0.08657189 0.07731856 -0.007487883 -0.049892128 0.17502517 -0.08885791
-0.17155632 -0.11202736 0.013913669 0.05672199 0.065014146 0.070913345 -0.08223677 0.10584188
0.1712079 0.15755765 -0.25797322 0.14115939 -0.058604736 -0.0084450785 0.00024327615 0.03531826
0.19176452 -0.30869532 -0.07086623 0.019383892 0.16754134 -0.10513226 0.06805516 0.0033071479
-0.060194097 0.24213421 -0.25130406 -0.37837464 0.11108507 -0.041983746 0.15568031 0.0962756
0.038975213 -0.010210543 0.14628072 0.047539532 0.11230218 0.1350158 -0.20516518 0.115866795
-0.061611567 -0.03442403 0.12323869 0.16994989 -0.114962734 -0.07599134 0.017017355 0.20012918

layers.2.weight f4 [200]
00000000: 512f 823f 8562 7b3f 146d 733f f9b8 823f
00000010: c4fb 803f 4966 823f d059 803f 0b61 813f
00000020: 15dd 7e3f 291b 823f 44e1 763f bfa9 713f
00000030: 2179 823f f88e 893f 3f69 863f e25f 863f
00000040: 3564 7a3f 850e 823f f6a7 803f 2756 803f
00000050: 8a32 813f 7e6e 803f 4d52 7c3f 0083 7e3f
00000060: aaa7 763f e971 803f 81f1 803f db2d 7c3f
00000070: a24b 7b3f 828f 813f ccf9 853f 4119 7e3f
00000080: 8d70 823f 16dd 803f 59fc 8e3f 7528 8a3f
00000090: 463e 823f d0c7 803f a45c 793f c31f 7f3f
000000a0: 665e 773f ced2 7f3f e100 7f3f 5d8e 7a3f
000000b0: 8c7e 7c3f 24d4 843f 6e58 7e3f 9519 7c3f
000000c0: 8ca7 773f 4b9a 783f 2fbc 7a3f 2caf 7f3f
000000d0: e06c 733f 9b13 813f 47f7 7f3f 9608 813f
000000e0: 378b 7b3f a786 803f 757e 813f cc04 7b3f
000000f0: 8358 7f3f 8239 793f 42f8 773f 1aee 833f
00000100: 615b 823f eeca 863f d4b3 8d3f 91b7 793f
00000110: 5c6f 733f 25e6 7e3f 98a0 7d3f ea86 7a3f
00000120: 6d32 7e3f e1f0 813f 8734 7a3f 5ba3 813f
00000130: 169a 813f 4920 803f e594 7c3f 332a 873f
00000140: 960f 813f 8883 843f f0fa 7a3f ad0e 7d3f
00000150: c91d 7d3f 5970 7d3f bb24 833f 7fc8 7e3f
00000160: dcb2 803f 6a9b 7b3f ea72 8c3f c21b 7c3f
00000170: a575 823f 54b2 813f f72c 813f e7cd 733f
00000180: 4afc 763f a4bd 843f bfe2 853f 9e20 6f3f
00000190: 71db 813f 1148 823f 88c8 803f d1c1 7e3f
000001a0: 107a 783f b4d6 833f 6587 7b3f d4c3 7b3f
000001b0: 8b45 793f c690 793f 798a 773f 6dc7 813f
000001c0: f6b4 803f d3bb 783f c73f 833f 4dc7 793f
000001d0: 9e85 7e3f f4fc 773f 85b2 7b3f a205 7c3f
000001e0: 85d1 7b3f 571b 7e3f cd74 803f 6703 7f3f
000001f0: b648 7e3f 28f7 783f 77e2 813f 714c 813f
00000200: cae6 813f 563e 7b3f 61cd 7c3f b27e 7a3f
00000210: f6e0 803f 70a4 803f 9df1 733f 7fff 813f
00000220: 057f 7d3f 49e8 803f 3dda 823f ea4a 743f
00000230: 3534 7b3f 9f36 7d3f ebf3 733f 48e8 7b3f
00000240: 52d3 7d3f cca2 763f ea31 813f e68b 683f
00000250: 005f 763f 8c72 763f 1003 853f 5485 7f3f
00000260: a92b 733f 3c09 7c3f a8d6 883f 5d54 7f3f
00000270: 0bac 803f d263 7a3f 0453 743f 707b 7d3f
00000280: 500e 7c3f 64f2 813f 4d00 6d3f 8c78 843f
00000290: 40e5 823f 228c 803f f3c7 7d3f f6a5 7d3f
000002a0: c8c4 813f e5b7 7e3f 82d6 813f 322d 833f
000002b0: 4575 7d3f 1085 863f 6cce 7e3f d244 7f3f
000002c0: 0c6a 7b3f 60de 823f 8c8a 713f 99ef 743f
000002d0: 475d 763f e8ae 813f 1ff8 7a3f 18bc 7e3f
000002e0: 58aa 773f da78 7f3f 4980 883f 452a 853f
000002f0: 6e18 783f 37ed 743f 61c4 743f de40 7e3f
00000300: 3e30 713f 0cda 7c3f a4ef 7d3f 7b17 7a3f
00000310: 2e51 803f 3b95 7f3f 5436 783f d0bd 763f
1.017069 0.98197204 0.95088315 1.0212699 1.0076833 1.0187465 1.0027409 1.010774
0.99556094 1.0164539 0.9643748 0.94399637 1.0193216 1.0746756 1.0500869 1.0498011
0.97809154 1.0160681 1.0051258 1.0026292 1.0093548 1.003372 0.9856308 0.9941864
0.96349585 1.0034763 1.0073701 0.9850747 0.9816228 1.012192 1.0466857 0.99257284
1.0190598 1.006747 1.117076 1.0793597 1.0175254 1.0060978 0.97406983 0.9965784
0.96628416 0.9993104 0.99610716 0.9787348 0.98630595 1.037724 0.99353683 0.98476535
0.9674003 0.9711043 0.97943395 0.99876666 0.95088005 1.0084108 0.9998669 1.0080745
0.982593 1.0041093 1.0116717 0.98054194 0.99744433 0.97353375 0.96863186 1.0307038
1.0184137 1.0530679 1.1070504 0.97545725 0.95091796 0.9956992 0.9907317 0.9786211
0.99295694 1.0151635 0.977364 1.0127977 1.0125148 1.0009853 0.98664695 1.0559753
1.0082881 1.035264 0.9803915 0.9885052 0.98873574 0.98999554 1.0245584 0.9952468
1.0054584 0.9828402 1.0972569 0.98479855 1.0192152 1.0132546 1.0091847 0.9523606
0.9647871 1.0370374 1.0459822 0.93409145 1.0145093 1.0178243 1.0061197 0.9951449
0.9706125 1.0299897 0.9825347 0.98345685 0.9737174 0.9748653 0.9669567 1.0138985
1.0055225 0.97161597 1.0253838 0.97569734 0.99422634 0.9687035 0.98319274 0.98446095
0.98366576 0.9926047 1.0035645 0.99614567 0.993297 0.9725213 1.0147237 1.0101453
1.0148556 0.9814199 0.98750883 0.9784957 1.0068653 1.0050182 0.9529055 1.0156096
0.9902194 1.0070888 1.0222851 0.9542681 0.98126537 0.9891147 0.95294064 0.9840131
0.99150574 0.9634216 1.0093358 0.9083847 0.9623871 0.96268535 1.039156 0.9981282
0.94988495 0.9845159 1.0690508 0.99738103 1.0052503 0.97808564 0.9543917 0.99016476
0.9845934 1.0152097 0.92578584 1.0349288 1.0226212 1.0042765 0.99133223 0.9908136
1.0138178 0.9949935 1.0143588 1.0248168 0.99007064 1.0509357 0.99533725 0.99714386
0.9820869 1.0224113 0.9435203 0.95678097 0.9623608 1.0131502 0.9803485 0.9950576
0.967443 0.9979378 1.066415 1.0403525 0.96912277 0.9567446 0.9561215 0.9931773
0.94214237 0.98770213 0.9919379 0.9769208 1.0024774 0.9983708 0.969579 0.9638338

layers.2.bias f4 [200]
00000000: d76f 4e3d 738c 2cbd e991 88bd 4304 743d
00000010: 4794 a9bd d26f 633d 94e0 813d b07e cc3b
00000020: 5386 44bd 4cd2 9abd 102e 82bd d558 a5bd
00000030: 7baf 4cbd c2da f93d 79c2 983d c1ce 8f3d
00000040: 1672 703d be71 d13d 9df6 bbbb b47a 7dbd
00000050: 0ac4 7a3d 7c02 233d f37c 5cbd ee61 c7bc
00000060: 0d92 77bd 75f5 aa3d a5d2 9f3d 2c57 26bd
00000070: 4d95 9a3d b18b 723d ed59 5f3d e7df d2bc
00000080: d4b2 88bd 79b2 29bd cb83 473d 67fe 883d
00000090: 57d7 1e3e 351f 86bd 0458 89bd 7249 b039
000000a0: 4b9d 42bd cac9 a8ba 7e25 263d 9b89 4abd
000000b0: e2a8 933c 9ae4 663d eef5 85bb 4272 723d
000000c0: 4390 e83c 2d96 313d bc85 61bd 9c14 4e3d
000000d0: 4ff9 adbd 9d1e 893c 9b7d e03b ee46 11bd
000000e0: 95bd a53d ef22 36bd 8abc 4fbd 6d50 ab3d
000000f0: 3659 9f3d c5e6 7dbd 65f9 843d 4796 de3d
00000100: 3a7d 963d d3ff 603d 95fc 553d 7265 97bd
00000110: 1bc9 2cbd 5d65 8ebd 32e7 4dbd 1b96 27bd
00000120: 7de8 cc3c 4078 ba3d 883c 0bbd ca69 5f3d
00000130: b7d2 81bd 83b8 97bd 75d1 1d3d a75c c53d
00000140: 22a3 66bd 11a1 afbd 46e9 f83d bda9 e1bc
00000150: d3bf 383d a6dd 4bbd 6a47 9a3d c48c 933d
00000160: fca4 62bd 4b50 213e f481 e03d eab0 86bd
00000170: 1f49 853d fa5f 923d 5e2b cf3d 0cc9 8bbd
00000180: 2692 b9bc b537 1dbd a2af 943d 68b2 97bd
00000190: 894c 85bd 4d98 abbd 5a3f 8abd e047 4fbd
000001a0: d0f8 83bd 7aa0 853d 4a38 973d 7eb4 793d
000001b0: a1f7 393d 7a4e 0ebd 1f91 6dbd 2f96 37bd
000001c0: 3bce c13d 1098 06bd cfb3 1f3d 5312 86bd
000001d0: 015a fcbc 147d 3dbd 443a 57bd dc61 8cbd
000001e0: 0d22 7bbd 98dd 423d f182 8bbd 99e8 173d
000001f0: a05e 8ebd 8a92 5ebd 7bea 63bd 7352 743d
00000200: 0e97 373d 7dd4 8fbd a6b4 72bd 1d5e 59bd
00000210: 2e4a be3c ad56 383d 7b17 843d 8321 e33d
00000220: c99e a0bd 1236 903d 745e 553d 1115 2cbd
00000230: a1c4 aa3d aaf7 443d 98c1 79bd 0e62 a5bc
00000240: f973 8abd a5dd 6bbd 13d9 043d 7eae 01bd
00000250: 734d 1ebd de52 5fbd a57d b93c 5e4b 31bd
00000260: 4802 31bd 2e04 123d 908d 553d bda0 75bd
00000270: 1883 85bd 5a75 7a3d 1b45 24bd 0a1d 87bd
00000280: aaf8 9ebd edae 7d3d 8000 9bbd 9208 8f3d
00000290: bf14 873d be3f 71bd 54ed 1abb 4c90 79bd
000002a0: b8d6 853d b3fd a13c 44c5 733d 9e6b ce3d
000002b0: 876e 47bd 6e34 653d c3e3 8dbc 0aa4 883d
000002c0: 7837 62bd 2556 893d b2cc 33bd 69e1 8abd
000002d0: 5dbf 8dbd 478e a33d ab25 5b3c 953b 9f3d
000002e0: 7ae5 b5bd c528 9b3d beea 963d 2d54 ac3d
000002f0: d9e2 86bc cf45 453d 6ecb 41bd 58e1 09bd
00000300: ad76 8abd 98ec be3b 0538 47bd 159b a53d
00000310: 0270 393d 3e66 9a3d c847 393b dbd3 613c
0.050399628 -0.04212613 -0.06668455 0.059574377 -0.08280235 0.055526562 0.06341663 0.0062406883
-0.047979664 -0.07559642 -0.06356442 -0.08073584 -0.04997204 0.12199928 0.07458968 0.07021857
0.05870255 0.10226773 -0.0057361857 -0.061884597 0.061222114 0.03979729 -0.0538301 -0.024338689
-0.06044202 0.083475985 0.07803849 -0.040610477 0.07548008 0.05921525 0.05452912 -0.02574153
-0.06674734 -0.04142997 0.048709672 0.066891484 0.15511833 -0.06548921 -0.06706241 0.00033624057
-0.047513288 -0.0012877521 0.0405631 -0.049447637 0.018024866 0.056370355 -0.004088155 0.059190996
0.028389102 0.04335611 -0.05505918 0.050312623 -0.084948175 0.01673823 0.006850911 -0.035468034
0.080928005 -0.04446691 -0.050716914 0.083649494 0.077806875 -0.061987657 0.06492881 0.10868507
0.07348104 0.054931473 0.052242834 -0.07392396 -0.042183977 -0.06952927 -0.050269313 -0.040914636
0.025013203 0.09104967 -0.033993274 0.054544248 -0.06339019 -0.0740824 0.038529832 0.09636813
-0.05630792 -0.08575643 0.121538684 -0.027546758 0.045104813 -0.049771927 0.075331524 0.07204583
-0.055333123 0.15753286 0.109622866 -0.065767124 0.06508087 0.07147212 0.101156935 -0.06825456
-0.022652697 -0.038383204 0.07260062 -0.07407075 -0.065087385 -0.083786584 -0.067503646 -0.050605655
-0.064439416 0.06524749 0.07383783 0.060963146 0.045402173 -0.03474281 -0.057999726 -0.04482096
0.094631635 -0.03285986 0.03898984 -0.06546464 -0.030804636 -0.046261862 -0.0525458 -0.06854603
-0.06131177 0.04757461 -0.068120845 0.037087057 -0.06951642 -0.05433897 -0.05564354 0.059648942
0.04482179 -0.07022951 -0.05925431 -0.05306827 0.023228731 0.045004535 0.06449791 0.11090376
-0.07842786 0.07041563 0.05209203 -0.042012278 0.08338285 0.048087753 -0.06097564 -0.020188358
-0.06760401 -0.057584424 0.03243358 -0.03166055 -0.03864808 -0.054522388 0.02264292 -0.043284766
-0.043215066 0.035648517 0.052136958 -0.059967745 -0.06519145 0.06114707 -0.040104967 -0.06597336
-0.07762273 0.0619344 -0.07568455 0.069840565 0.06595754 -0.05889868 -0.0023639994 -0.060928628
0.06535095 0.019774294 0.0595143 0.1007912 -0.04868939 0.055958204 -0.01732052 0.06671913
-0.05522868 0.06705884 -0.043896385 -0.06781275 -0.06921265 0.079861216 0.01337568 0.07775036
-0.0888166 0.075761355 0.07368992 0.08414493 -0.016465591 0.048162278 -0.047313146 -0.03366217
-0.06760917 0.005826544 -0.04863741 0.0808622 0.045272835 0.075390324 0.0028271545 0.01378342

layers.2.running_mean f4 [200]
00000000: a240 ea3e 4a32 273e cae6 033e db89 5f3e
00000010: 352c 553e d93b 663d 6c1e 553e 75a7 7e3e
00000020: ab8a 413e cf78 e23d 3a73 9d3e 4fce 6f3e
00000030: 5fe4 763e 8c75 be3d a519 213e 5387 f43e
00000040: ce12 313e 17a2 c03e f2fc c63d 66bb a63d
00000050: 5af9 9d3e b4fc ba3e ae9a 093e 5b54 b53d
00000060: 9af8 173e 385e d33e 2647 9f3e 0ec5 b53d
00000070: 292b bd3e 5e82 193f d9a2 9e3e b617 693e
00000080: 0c2b ad3e a297 823e df18 d33e 6760 913d
00000090: 42e9 bd3d d32b e23d 1ee5 2e3e 9fe4 af3e
000000a0: 1754 e73d ca1f 363e 47ac 753e 9f5c 9d3e
000000b0: 6760 7a3e 1a03 b23e b24b 313d 5e8a 813e
000000c0: ef39 9a3e 2be1 9e3e f957 253e 4051 9e3d
000000d0: d826 cd3d e900 9a3e a2a5 e43d 2ac7 303d
000000e0: 3e94 7b3e ec3d cc3e 2590 0a3f 0c6e 6c3e
000000f0: a3f2 743e 34e2 7a3e 0cef 693e e645 8e3e
00000100: 02e7 003f 7b9a 683e 3ba2 8b3d 82ef e83d
00000110: 8119 bc3e 30d5 963d 9b2b 073e 090a 0c3e
00000120: 5d46 d23e 3742 f33d 5cf4 073e a037 a93e
00000130: bee9 2a3e 6c1a f43d 3a90 0c3f 8a22 ab3d
00000140: 6050 0d3e 02ca 543e 2452 af3e b4b3 b93d
00000150: bf02 763e 1373 793d d050 443e 367c d83e
00000160: 05e8 b13d 9112 813e 461f a13d 851a bd3d
00000170: b2e9 123f ce28 4e3e dd5f 8c3e bd2a a03e
00000180: 72df da3e 0998 f13c 20e7 8e3e 9d3e 0b3e
00000190: 6723 8d3d 7a7c 883e b83d 2c3e dba8 4e3e
000001a0: 725b 533e 07f6 973e 8848 073f 3c11 b73e
000001b0: 664f a53e 25b7 523e 4004 483e 2135 4e3e
000001c0: 94bd 223e f36f 843e 4ca3 dd3e e9dd 5a3e
000001d0: 28a2 163e f88c 4c3e ff0c e53d 0ec4 143e
000001e0: ad5c fd3d d8ca 513e 78bb 533d c2c6 593e
000001f0: f3d4 453e 8aff fd3d 3c5b 9a3d ac66 953e
00000200: 66a7 943e 8b22 e03e 1d61 c13e 4412 6c3e
00000210: 6baf b53e 5dad 803e aea0 803e e3b6 b93d
00000220: d801 6c3e 9dda b03e 1234 eb3e 3ff2 323e
00000230: 3650 e13e 84f6 ee3d 77c0 e13d 7f79 b93e
00000240: 6f3f 833d da61 313e 138e 083e ad36 183e
00000250: 0c57 713e 7f9b 1c3e 0546 953e e09e 243e
00000260: 4e7f ed3d 0ccf b03e 7d4a 653e 3b63 543e
00000270: fa2f 773e 6f9b af3e 1ba5 4c3e cc66 6c3e
00000280: b882 953e 1c67 ae3e a350 773d ecae 953e
00000290: 5f78 863e 581b 673e a97a 0f3e 4bb0 3d3e
000002a0: 2836 803e c550 853d a064 ff3d d64a 7d3e
000002b0: ede6 2e3e 8353 433e 2db2 053e 86fe c33e
000002c0: 542b 403e fb88 953e 7602 aa3d dfac 8d3d
000002d0: 96a8 003e 66d7 523e 32a0 973e c668 a13e
000002e0: 9560 653e b198 343e 0d69 8f3e 5231 323e
000002f0: ef0d 913e 49ac cf3e e0df 023e 7c5a d93d
00000300: 23d4 d63d a5f2 5e3e 5654 513e 5103 9a3e
00000310: 2c49 813e 94a3 6b3e e63f 683e b8f2 923e
0.45752436 0.16327778 0.12881008 0.21829931 0.20817645 0.05620942 0.20812386 0.24868567
0.18900554 0.11058199 0.30751973 0.23418544 0.24110554 0.09299764 0.15732439 0.47759494
0.1729233 0.37623665 0.09716214 0.08141212 0.30854303 0.36520922 0.13437912 0.0885398
0.14840928 0.4128282 0.3110897 0.08875476 0.3694699 0.5996455 0.30983618 0.22762951
0.33821905 0.25506312 0.41229913 0.070984654 0.09273006 0.11043515 0.17079589 0.34354112
0.11295336 0.17785564 0.239915 0.30734727 0.24450837 0.3476799 0.04328508 0.25300878
0.30122325 0.31031165 0.1614684 0.07730341 0.100171745 0.3007882 0.111644045 0.043158688
0.24568269 0.39890993 0.541262 0.23088855 0.23920684 0.24500352 0.22845095 0.27787703
0.5035249 0.2271518 0.068180524 0.113738075 0.36738208 0.07364881 0.13200228 0.13675703
0.41069308 0.11877864 0.1327681 0.3305025 0.16690728 0.11919102 0.5490757 0.08356197
0.13800192 0.20780185 0.34242356 0.09067479 0.24024485 0.06090076 0.19171453 0.42282265
0.08686832 0.25209478 0.07867293 0.09233574 0.5738784 0.20132753 0.27416888 0.31282607
0.427486 0.029491441 0.2791071 0.13598104 0.06891518 0.26657468 0.16820419 0.20181601
0.20640352 0.2967989 0.5284505 0.35755336 0.3228714 0.20577677 0.19532871 0.20137455
0.15892631 0.2586666 0.43288648 0.21373715 0.14710295 0.1997565 0.111841194 0.14527914
0.12371192 0.20487535 0.051692456 0.21267226 0.19319515 0.12402256 0.07536933 0.29179895
0.29033965 0.43776354 0.37769404 0.23053843 0.35485396 0.25132266 0.2512259 0.09068086
0.23047578 0.3454179 0.45938164 0.17475222 0.4400651 0.11668113 0.11023038 0.36225507
0.064085834 0.17322484 0.13335447 0.14864607 0.23568362 0.15293692 0.29154983 0.16076231
0.11596547 0.34532964 0.22391696 0.20740978 0.24139395 0.34298274 0.19984858 0.23086089
0.29201293 0.3406304 0.060379636 0.29235017 0.2626371 0.22569025 0.14011635 0.18524282
0.25041318 0.06509546 0.124703646 0.24735579 0.17080279 0.19074826 0.1305625 0.38280123
0.18766528 0.2920607 0.08301251 0.06917738 0.1256431 0.2058998 0.29614407 0.31525248
0.22400124 0.17636372 0.28009835 0.17401627 0.28330943 0.4056113 0.12780714 0.10612962
0.104896806 0.21772249 0.20442328 0.30080655 0.25251138 0.23011619 0.22680625 0.28700805

layers.2.running_var f4 [200]
00000000: 6ea9 693d aba5 db3d 21ff 723d cdeb d33d
00000010: d062 b93d 7b01 603d 3eb6 5e3d 9921 d23d
00000020: 5d13 f43d bd8f 5a3d 739a 473e ea86 053e
00000030: 6a59 073e cad4 943d 46a3 913d 07a2 c23d
00000040: 0443 4a3d dfff 533e 1dbc d03d 5708 123d
00000050: 6c27 543d 215d 163e 2427 b93d ecf8 563d
00000060: dd2c b43d 0ba2 4a3e 05ae 653d 6b09 6e3d
00000070: 523f 5a3e 02ec 9f3e fd35 093e 6763 ca3c
00000080: a116 5b3e 4974 fc3d eea9 1b3e ef32 773d
00000090: 2d42 3f3d e0c7 343d 6f39 033e 9406 1d3e
000000a0: f06f b43d aae8 793c 5037 043e 800b 5e3e
000000b0: 8b17 033e 6008 b53d b2eb 093d 5f80 193e
000000c0: 25e0 1d3e 3e4e 403e 5ef6 b23d 304f 303d
000000d0: f3df 8e3d 6f6d 0e3d 2917 c93d 52fc e23c
000000e0: fc4a b03d be41 8c3e b610 3c3e a934 1e3d
000000f0: d30d b03d fede 0f3e 56f1 eb3d b6b4 0b3d
00000100: 95bb 863e 95d0 df3d c872 463d 66b4 c23d
00000110: 6a9e 5c3e 668c 733d 0096 913d 8069 2c3e
00000120: 0fa3 7d3e 5e29 953c bef1 9b3d 9906 423d
00000130: 5e12 c83d 7751 bb3d 9372 843e 92be 833d
00000140: ec9c b43d 4d07 193e 0c80 4b3e 68fa cc3d
00000150: 1888 813d 0fdd 503d 1037 a73d 0b31 b43d
00000160: 3722 423d 453f 823d e84a 623d 292b ba3d
00000170: e81e 5a3e 805a 6a3d cbb5 993d 1970 f93d
00000180: 2c76 823e edbc b23c 7ea5 853d 01ea a13d
00000190: 6b47 a43c 3c4b 2f3e 9e1c 9b3d afba 0b3e
000001a0: 756f 173e 08a6 c63d b424 1b3e 3191 153e
000001b0: c79d 0e3e d0a2 d43d d8d4 153e d7d8 113e
000001c0: ced6 873d f814 2f3e 04af 6d3e d652 f23d
000001d0: d401 ba3d 3e8a 233e 5ba3 963d 4ea6 e13d
000001e0: 7641 783d 3efe ba3d 0ec0 3b3d c9ba bb3d
000001f0: 048f 973d 04e5 ac3d ae93 6f3d b9aa ad3d
00000200: ebf9 e13d f0a4 753e b221 713e 0f6f 143e
00000210: 9701 573e 728e bb3d 26f1 083e 5bcd 7e3c
00000220: 0ef7 123e c3f4 fc3d 699b 793d 5e6f ff3d
00000230: a91b 413d c502 7a3d c346 fe3d 4747 483e
00000240: ef2d 2a3d 4d3e ea3d 77e0 c93d b33f fa3d
00000250: f4bf 273e 3e6b 133e 676d 173d a2f2 8d3d
00000260: 4750 903d 692c 863e 42d7 cc3d 2bf8 ca3d
00000270: 2516 293e ccae a03d bf83 ed3d 6fb8 0a3e
00000280: 3b8f 553e 7faf 0c3e 61d0 363d aebe f23d
00000290: 2e42 a43d edc7 163e c8ed f63d 890f 023e
000002a0: 7575 a13d 17e7 013d e1ac 333d cea1 223e
000002b0: efb3 d63d 380b ce3d 96e1 9b3d f830 ee3d
000002c0: f241 b13d 4662 8e3d b406 613d 4c70 423d
000002d0: 31ca 743d f762 9a3d ca29 4c3e 2618 a93d
000002e0: 65bd dc3d bbf5 7f3d b731 c93d 6bae 083d
000002f0: 6026 2d3e e451 003e b8ab b43d da9a 233d
00000300: 6e79 5e3d a3ee 043e 6f6d 293e cf93 313d
00000310: c5b1 fa3d f7b5 c63d 988d 013e df05 583e
0.057046346 0.10724958 0.05932534 0.1034771 0.0905205 0.054688912 0.05437302 0.102603145
0.11917756 0.053359736 0.19492511 0.13039747 0.13217703 0.07267149 0.0711122 0.095035605
0.049380317 0.20703076 0.1019213 0.035652485 0.051795408 0.14683963 0.090406686 0.052483484
0.087976195 0.19788377 0.05607416 0.05811445 0.21313217 0.31234747 0.13399501 0.024705602
0.21395351 0.12326867 0.15201542 0.06035131 0.04669397 0.04413593 0.12814878 0.1533454
0.08810413 0.015253225 0.12911725 0.21684074 0.1280195 0.08839488 0.033672042 0.14990376
0.15417536 0.18779847 0.08738397 0.04304427 0.06976309 0.034772333 0.098188706 0.027708206
0.08608052 0.27393907 0.1836575 0.03862444 0.08596387 0.14049909 0.115206406 0.034107886
0.2631499 0.10928456 0.048449308 0.095070645 0.21544805 0.059460066 0.07108688 0.1683712
0.24769233 0.018208202 0.07614468 0.047369573 0.09769128 0.091463976 0.25868663 0.06432833
0.08818993 0.14944191 0.19873065 0.10008699 0.06324786 0.050992068 0.08164799 0.08798417
0.04739591 0.06359724 0.055247217 0.090902634 0.21300852 0.057215214 0.075053774 0.12179584
0.25480783 0.021818602 0.06525706 0.07905961 0.020053586 0.17118543 0.07573818 0.13645433
0.14788611 0.09699637 0.1515072 0.14606167 0.13927375 0.103826165 0.14631975 0.14242874
0.066327676 0.17097843 0.23211294 0.11832206 0.0908238 0.15970704 0.07355376 0.11018048
0.060609303 0.09130524 0.045837454 0.09166486 0.07400325 0.08442119 0.058490448 0.084798284
0.11033996 0.239887 0.2354801 0.1449549 0.209967 0.09158029 0.13373241 0.01555189
0.14352056 0.12351372 0.060939226 0.124724135 0.04714552 0.061037797 0.124158405 0.1955844
0.041547712 0.11437664 0.098572664 0.12219181 0.16381818 0.14396378 0.03696957 0.06931044
0.07046562 0.26205757 0.10001995 0.099106155 0.16512354 0.0784584 0.11597394 0.13546918
0.2085542 0.13738821 0.04463232 0.118527755 0.08020435 0.14724703 0.12057072 0.12701239
0.07883731 0.031714525 0.043866042 0.15882036 0.10483538 0.100607336 0.076113865 0.11630434
0.08655156 0.06952338 0.054938033 0.047470376 0.059763137 0.07538407 0.19937816 0.08256559
0.10778312 0.062490206 0.098239355 0.033369463 0.1690917 0.12531239 0.08821815 0.0399426
0.054315023 0.12981658 0.16545652 0.043353852 0.12240938 0.09702676 0.1265167 0.2109599

layers.4.weight f4 [100, 200]
00000000: edae 2ebc 9ff7 943d 5b5a babc a8bd fc3c
00000010: cfec b83d 731f 183d 161a d0bd 7d24 b83c
00000020: e348 adbb 2c40 a7bc 2279 503c 6d97 053d
00000030: 7d8f 14bd 9b98 993d a8c1 b1bd d68c 90bc
00000040: d521 8abd 47b9 adbb 4bd2 88bd 07c5 37bd
00000050: d6a4 cf3c d644 0e3d 6446 3fbc 1e67 853c
00000060: 34bf 943d 74f0 39bd fc70 143b 198d 083d
00000070: 6c0c 2f3d e97e 893d 1756 abbd 93dc 3abd
00000080: bce9 6a3d 2ba4 803d 527b 98bd 898f 223c
00000090: 1bed 5fbe aad1 8b3d f465 88bd c7d3 273d
000000a0: 023b 5b3d 095b 383d 3635 6f3d 2fd5 ad3c
000000b0: 85e4 34bc 2ab4 aa3d 5ecb 9339 e942 813c
000000c0: 8d37 403d f176 a93c 57e3 4bbd f1c1 4bbc
000000d0: 0913 0d3d e616 3f3d dd07 2e3d e4ee 753d
000000e0: 927f 61bd 66e4 9e3d 4571 0fbd b45c c5bb
000000f0: 5cef 18be 1726 6b3d 6b8b 083d 7625 1cbb
00000100: 3e7a 803d 7522 0e3d 1693 663d 720f 763d
00000110: 182e a1bc 7bcd 58bc ba6e 103d e16d 31bd
00000120: f70d e8bd 3f10 c33c c48c 503d ee4f 2dbd
00000130: ac92 33b9 4c7c 2d3d dbd2 9f3c 3427 d53b
00000140: 2553 2abd 6818 113d 0081 22bd 3e09 8a3b
00000150: 91dd 54bd c0ab 3ebd 7db9 3abc db4f b6bc
00000160: d4e5 2d3d f11c 11be 49de 07bc 72ac 1cbd
00000170: 4bda 42bd 4fdc 0bbd e4f9 9bbd 0cc5 5abc
00000180: d3d1 8c3c c0f8 db3c 3f86 53bd 735b fabc
00000190: 1dab fc3d a8aa 62bb c31e 2b3b 2636 2fbc
000001a0: aa3a bf3c b5eb 44bd 9814 4cbc 117e af3c
000001b0: d575 113d 7280 48bd 6601 53bd b0d1 303d
000001c0: 7b33 fdbd e393 6bbc 0aef 533c 0050 af3d
000001d0: 9e17 733d 4ca8 50bd 6570 213d 898d e8bc
000001e0: aede ecbc 9a6c 1bbc 0e88 ef3b e21d 743c
000001f0: 8e89 443d 1013 2b3d c2c1 683d 5862 0fbd
00000200: 323d eabd 61c4 e0bc e8ac b13d a06f b83c
00000210: 021f a0bd f199 8e3d 92e2 75bd ebcd 8b3c
00000220: 6bdd 32bd ac58 3b3c 4961 6fbd 19e0 533d
00000230: 1ed0 893c ebea 9dbd 68b4 dabc f3dc 4c3c
00000240: c475 9c3d cbbc dfbc 2c74 de3d 612f c0bc
00000250: ba94 083d 693d e2bc eb42 8c3c 5df6 c63d
00000260: 1482 7a3c 76d5 59bb af9d 783d 2646 803d
00000270: 53bb 1b3c af9a 8bbc 82de 373d b79f 563d
00000280: 3aed 4abc 1bbb bcbd 6280 833d d3d3 6dbd
00000290: c481 a9bd cb64 fb3b 5433 da3c 481d 31bc
000002a0: 691b 4dbd ecb4 4d3d 344b 603d e2a2 0a3e
000002b0: 423a 9abc 264c 0ebc d4b7 153d fec3 43bd
000002c0: 9e23 513d f055 e63a 68f6 0abd f4ba a63d
000002d0: a947 58bd aaa0 11bd 2054 c8bd 3cfe 9bbd
000002e0: 38c4 1ebd 3dbe 1a3c b33a 55bb 1c8c c8bd
000002f0: 9a23 00bb eb16 113d 4a7b d7b9 6694 5f3a
00000300: 8bc9 ed3b 9c49 963d 6353 1e3d 6504 91bc
00000310: d414 b03c b7f9 d1bc 0082 edbc 7c81 403d
00000320: 659a 3bbc c173 253d 5cae 343d 7303 973c
00000330: b264 063c ca89 fb3c fbed 693c 63ae 203d
00000340: c4a1 913d 53ea a33c dcd1 a83d 76f9 81bc
00000350: 2ac3 873d 709b 1fbc cde1 ce3c c554 9fbc
00000360: 99b0 43bd cbea 2c3d 4dcd e23c e648 62bd
00000370: 962e 4bbd d825 26bc 300b 973d aa2e 17bd
00000380: aefd 87bc 4070 9b3c 6519 84bd eb67 7e3d
00000390: 3c2c 54bd 5de2 5d3b 9387 05bd 2a5f 35bd
000003a0: 7795 87bb c8df 9fbc 5837 47bd a46e a73c
000003b0: 3f0f 31bd 8930 2a3d 3e1a f23c b30a b1bd
000003c0: 3d04 933d 102b 223d 6a04 5dbd d7b9 f3bc
000003d0: a443 56bc 8ea7 bc3a 5a9e 5f3d 7ff7 543c
000003e0: f0df 313d 84f4 be3c c730 b83b 38ad 493c
000003f0: 35ab d6bc dce5 3bbd c31b 643d a266 21bd
-0.010661823 0.072737925 -0.022748163 0.030852154 0.09029543 0.037139367 -0.101612255 0.022478336
-0.00528823 -0.020416342 0.012724193 0.032615114 -0.036269654 0.0749981 -0.08679515 -0.01764528
-0.06744734 -0.005301628 -0.06680735 -0.044865634 0.025347155 0.034733616 -0.011674497 0.016284522
0.072630316 -0.04539533 0.0022650352 0.033337686 0.042736456 0.06713659 -0.0836603 -0.045620512
0.057351813 0.062813126 -0.074453965 0.009921917 -0.21867792 0.068270996 -0.06660071 0.04097345
0.05352307 0.045008693 0.058400355 0.021219818 -0.011040811 0.08335145 0.00028189545 0.015778976
0.046927977 0.020686598 -0.049777355 -0.012436376 0.03444198 0.046652697 0.042487968 0.060042277
-0.0550533 0.07758407 -0.03502013 -0.006023014 -0.14935058 0.057409372 0.033336084 -0.002382604
0.06273316 0.03470083 0.056292616 0.060073324 -0.0196753 -0.013232584 0.035261847 -0.04331768
-0.113307886 0.023811458 0.050915495 -0.042312555 -0.0001712541 0.042354867 0.019509723 0.0065049175
-0.0415832 0.035423666 -0.039673805 0.0042125275 -0.051969115 -0.046550512 -0.011396763 -0.022254875
0.04245551 -0.14171197 -0.008292743 -0.038250394 -0.04757146 -0.03414565 -0.07616022 -0.013352644
0.017189896 0.026852012 -0.0516417 -0.030561185 0.12337325 -0.0034586582 0.0026110865 -0.010694062
0.023343403 -0.04807635 -0.012456082 0.021422418 0.035512764 -0.04895062 -0.051515006 0.043168724
-0.12363335 -0.014378521 0.012935409 0.08560181 0.059348695 -0.05094175 0.03941383 -0.028387802
-0.028914776 -0.009486342 0.00730992 0.014899703 0.047982745 0.041766226 0.056825407 -0.035005897
-0.11437453 -0.02743739 0.086755574 0.022514164 -0.07818414 0.06962956 -0.060030527 0.017065963
-0.043668192 0.011434715 -0.058442388 0.051727388 0.01682287 -0.07710823 -0.026697353 0.01250385
0.076396495 -0.027311703 0.10862002 -0.023460092 0.03334496 -0.027617173 0.017121753 0.09714959
0.015289802 -0.0033238805 0.060697254 0.0626338 0.009505111 -0.017041532 0.044889934 0.05239841
-0.012385661 -0.09215375 0.064209715 -0.05806334 -0.08276704 0.0076719276 0.026635803 -0.010810204
-0.05007497 0.05022137 0.05475922 0.13538697 -0.018826608 -0.008685147 0.036552265 -0.047794335
0.051059358 0.0017573219 -0.033926398 0.08141127 -0.052802715 -0.03555361 -0.097816706 -0.07616851
-0.038761348 0.00944477 -0.0032536208 -0.09792349 -0.001955247 0.035422247 -0.00041099853 0.0008528888
0.007256692 0.073382586 0.038653743 -0.01770229 0.021494307 -0.025631769 -0.028992653 0.046998486
-0.011450385 0.040393595 0.044111595 0.018434262 0.008202719 0.030705351 0.01427793 0.039228808
0.071109325 0.020009195 0.082431525 -0.015866023 0.066290215 -0.009741649 0.025254155 -0.019449601
-0.04777584 0.042216104 0.027685786 -0.055245303 -0.049604975 -0.010140859 0.07375181 -0.036909737
-0.016600456 0.018974423 -0.06450156 0.062110823 -0.051799998 0.0033856847 -0.032599997 -0.04428021
-0.0041376906 -0.019515887 -0.048636764 0.0204385 -0.04322743 0.041550193 0.029553529 -0.08644619
0.07178543 0.03959185 -0.053959288 -0.029751701 -0.01307765 0.0014393197 0.054594375 0.012998461
0.043426454 0.023309954 0.005621049 0.012309365 -0.026204685 -0.045873508 0.05569054 -0.03940452

layers.4.bias f4 [100]
00000000: 2227 c8bd 2e63 bc3c e2d5 2abb 4234 243d
00000010: 0090 3a3c 17f2 4e3e b539 0fbe e3ba 0f3e
00000020: 492b dcbd 39f9 c13c c341 b23c e848 43bd
00000030: 4627 a43c 0580 ae3d af94 ae3d e673 98bd
00000040: 3969 433d 2f90 393e 427f 62bd 69bf ec3b
00000050: df77 26be 13a9 4abd dd75 c5bd b2c6 213e
00000060: 9682 813d ece5 bebd eeb4 7e3e f680 42bc
00000070: 1269 fb3d 93d9 1e3e e65e 303e 2356 cebd
00000080: 0bc3 103e 4983 c23b 6a88 bbbd efd4 dcbd
00000090: 3d9e f8bc 14ac c0bd c2a1 65bc 24c2 47bd
000000a0: f76f 513c 5710 173d 9a37 513e 2749 e63d
000000b0: db44 173e a45a f83d 09ae e3bd fc44 78bb
000000c0: e16c a83d d008 1abe 88a1 39bd fa0a 69bd
000000d0: dccb 00be c137 69bd 9666 d4bc 698d bcbd
000000e0: 91cd 673d 5384 3a3d 2974 37be 95b7 aebc
000000f0: c84d 153d 7257 e43d 2fd2 083e 4b5c ac3d
00000100: b47f 18bd bd1e 49bc 7dcc 8fbd 7a74 92bd
00000110: 8ae1 2b3e d3fa b93d f389 023e fdfb eb3d
00000120: 84bc e73d 8098 623e 3442 313e 5455 a53d
00000130: 1fe1 b9bd 0b31 033e 1f10 2d3e 3091 14be
00000140: eb24 ff3d 12db ed3c ded5 b83d 5829 32be
00000150: 8b97 043e 19ce 4d3e e86e 8b3c a111 073e
00000160: 11a3 12be 5d1d 3bbd 2ed0 893d 035b 08bd
00000170: 655c 863e 982c cc3d b36a 0e3e 1bca 1d3e
00000180: 84e7 b8bd 6a7c fa3d d631 ca3d 7cad c83d
-0.09773089 0.022996511 -0.0026067425 0.0400889 0.011386871 0.20209537 -0.13986857 0.14036135
-0.107504435 0.023678409 0.021759873 -0.04767695 0.020038258 0.085205115 0.08524453 -0.07443981
0.04770777 0.18121408 -0.055297144 0.0072249663 -0.16256665 -0.049477648 -0.09641621 0.15798452
0.063237354 -0.09321198 0.24873707 -0.011871567 0.122759 0.15512685 0.17223701 -0.10075023
0.14136903 0.0059360606 -0.09156878 -0.10782801 -0.030348891 -0.09407821 -0.014015617 -0.04876913
0.012783042 0.036880817 0.20431367 0.112444215 0.1477236 0.12126663 -0.11117179 -0.0037882915
0.08223892 -0.15042424 -0.045320064 -0.056895234 -0.12577766 -0.056937937 -0.025927823 -0.09206659
0.056592528 0.04553635 -0.17915405 -0.021327773 0.03645113 0.11149491 0.13361429 0.08416041
-0.037231162 -0.012275395 -0.07021425 -0.071511224 0.16785255 0.09081044 0.12747936 0.11522672
0.113152534 0.22128487 0.1731041 0.08072916 -0.090761416 0.12811677 0.16900681 -0.1450851
0.124582134 0.029035125 0.09025167 -0.17398584 0.12948434 0.20098151 0.017020658 0.13190319
-0.14320017 -0.0456823 0.0672916 -0.03328992 0.26242366 0.09969443 0.1390789 0.15409128
-0.09028533 0.12230761 0.09872787 0.097987145

layers.6.weight f4 [100]
00000000: d025 5a3f 25a7 5a3f e490 683f d68d 2e3f
00000010: 46fe 603f c241 2a3f 7df8 593f 1f1f 363f
00000020: a2ae 443f fc9e 313f e507 2c3f 46b0 613f
00000030: 73db 333f ce15 293f 3b05 293f d013 573f
00000040: d5e3 283f fa13 223f cfc8 4c3f ca8d 613f
00000050: bf41 543f 338c 563f 1494 573f 6d22 293f
00000060: 7697 323f 5567 583f 0a15 243f 6459 663f
00000070: f537 2a3f 91cf 2f3f 03e8 203f 7696 663f
00000080: b8bf 303f b266 2b3f f0a8 563f 587e 663f
00000090: 9c71 593f fe75 663f c611 603f db61 623f
000000a0: cdcf 503f 2664 543f dae0 283f 2364 293f
000000b0: 0c16 2f3f 490f 2c3f c6cf 563f bb75 533f
000000c0: 7c8d 233f 87ed 433f e675 563f f3a2 543f
000000d0: db83 613f 9f48 603f 0323 3a3f 7daa 573f
000000e0: 44c2 333f c43b 2c3f 3d53 503f 8470 5a3f
000000f0: a90f 333f a861 373f 26dd 273f c865 233f
00000100: 7599 5c3f 1f6f 5f3f 75ed 523f d51b 5d3f
00000110: e8bd 2a3f a347 283f 6bfb 213f 68f8 333f
00000120: 83ba 2b3f bd68 2e3f 4cb5 2d3f a9bf 2a3f
00000130: 7a1b 653f 3dc8 243f cd64 303f d557 613f
00000140: f6a0 243f 9e8b 203f dfdf 2c3f 5f7d 593f
00000150: ff7f 303f cf02 2e3f 8531 543f 895e 2d3f
00000160: 4950 543f c967 2c3f 7c3c 1f3f f8b2 353f
00000170: 5ab2 233f 47a5 233f 0ad1 2e3f 9357 283f
00000180: 7904 6a3f 4de3 263f f570 223f a261 2a3f
0.8521395 0.8541129 0.90846086 0.68185174 0.8788799 0.6650659 0.8514479 0.7114124
0.7682897 0.69383216 0.67199546 0.88159597 0.7025673 0.66048896 0.66023606 0.84014606
0.65972644 0.6331173 0.7999391 0.8810698 0.8291282 0.8380768 0.84210324 0.66068155
0.6976236 0.8453267 0.64094603 0.8998015 0.66491634 0.68676096 0.6285402 0.90073335
0.6904254 0.66953576 0.8385153 0.90036535 0.8493898 0.9002379 0.8752712 0.88430566
0.8156708 0.82965314 0.65968096 0.6616842 0.68393016 0.67210823 0.8391079 0.8260152
0.63887763 0.7653431 0.8377365 0.8306114 0.8809182 0.8761081 0.72709674 0.8424452
0.702183 0.67278695 0.8137701 0.85327935 0.6994577 0.71633387 0.6557182 0.6382718
0.86171657 0.8727893 0.8239358 0.86370593 0.66696024 0.6573431 0.6327426 0.7030091
0.6708147 0.6812857 0.6785476 0.666987 0.8949505 0.6436804 0.6890381 0.88024646
0.64308107 0.6271304 0.675291 0.84956926 0.68945307 0.67973036 0.8288806 0.67722374
0.82935005 0.67345864 0.62201667 0.7097621 0.6394402 0.6392407 0.6828772 0.6575863
0.91413075 0.65190583 0.6345361 0.66555226
